baseline_model_BS_32.pth (torch, 651457 bytes, 4 tensors)

embedding.weight f4 [5002, 32]
-0.9865999 0.1293599 0.493545 0.8957861 0.1355992 0.894005 -0.8732484 0.6126484
0.013662946 0.52544355 -0.823923 -0.2514745 0.8489641 -0.2808387 -0.04407916 -0.2403585
1.7058545 1.6696532 1.1854151 -0.6616798 -0.19728898 -0.57688665 0.2944949 0.52216554
-0.15203655 0.68920505 0.33193123 0.3661182 0.03404883 -1.4130775 -1.1173493 0.01260635
-0.2081191 -0.31889796 0.33282727 -0.5831537 0.084831685 -0.025502758 -0.20560953 -0.96561
0.029110413 -0.1990878 -0.05376441 0.24792519 0.043707427 -0.047644768 -0.51441836 0.4333009
0.5139893 1.1945809 -0.1076139 -0.03609204 -1.2907722 -0.015268156 -0.55333966 0.16260046
-0.16535439 -0.31617415 -0.13958047 -0.09832913 0.2485452 -0.106371075 0.123682775 0.02801684
1.0063945 -0.057018522 0.6722106 1.303236 -0.4029775 0.5975676 -0.9723719 -1.174133
-1.5875546 -0.16246736 1.0196972 1.0525706 -1.374666 -0.01686064 0.28925976 -0.4136658
-1.627135 -1.5787442 -0.6279193 1.0591159 1.5822625 0.02843575 -0.2738405 0.51365423
-0.69815564 -0.31230152 -0.7910802 1.1892073 0.93737274 -0.95870245 -0.6352605 0.6797719
-0.6421557 1.2759827 -0.71480995 1.0226713 1.0725739 0.17871141 0.1156111 0.5206722
0.43443796 -0.22527915 -0.45039228 -0.031790324 -0.017055677 -0.5750326 0.07394566 -1.1299326
-0.43706426 0.4009398 -0.68611395 0.30416238 1.0377687 -0.2904469 1.5212961 -2.7126734
-0.99751794 -0.011147325 1.2424526 0.43040532 -0.15763968 0.9091987 1.0039599 -0.08638626
0.41875204 0.19117053 -0.48361716 -0.06409739 -0.1788813 -0.7667432 -0.15801224 1.9040687
-0.65042984 0.28865552 1.4094505 0.3300456 -0.4688889 -1.0200334 1.1192617 -0.068488084
-0.35801122 -1.6582569 0.17938203 -0.6464085 0.5295406 -0.96094525 0.8017657 0.3390764
-1.0442743 0.2195806 0.46858612 -0.7771662 -0.1452264 -0.34314293 -0.33191922 0.009909762
-0.62466276 0.32577267 0.84866846 -0.15377295 0.6089075 -0.57742596 -0.3780221 -0.5156072
-0.24814624 0.32569495 0.43237945 2.0032659 -0.9451228 -0.31925854 -0.94431746 0.1789467
-0.69137144 1.2359434 -1.7127028 -1.2785748 1.4613204 -1.273494 1.1761435 0.38948858
0.44097114 -1.3845482 -0.054379962 -0.62853426 -1.2920967 -0.46303686 0.5277208 0.49898636
0.35624346 -0.96732813 -1.0930997 -1.6920222 -0.20058526 -0.36036676 1.0435708 -0.16985212
0.80111545 3.1974807 0.8256886 -2.8174827 -1.2536944 -1.0617995 0.398891 -0.73759985
-1.3133639 0.02593665 0.9018643 1.3861506 -1.077438 -0.6914494 1.0861295 -0.6693696
-1.5321645 1.8036491 0.8104661 1.0775132 -1.3202317 -1.3824527 0.514706 -1.5520575
0.20791675 0.24510485 0.46142197 -1.8132709 0.6921746 0.10074194 0.060848054 1.2550962
0.52150035 -0.590874 -0.98723644 -0.80755085 -0.35409594 -0.38987583 0.6315154 1.289052
-1.2154863 -0.8671665 0.251152 -0.21996137 -0.6577466 1.4256107 -1.5075953 -1.0139813
0.91047776 -0.108087555 0.50446355 -1.2128534 -0.6004657 2.3488204 -0.558728 0.86231935
00000000: d091 7cbf ec76 043e eeb1 fc3e 3d52 653f
00000010: 84da 0a3e 83dd 643f 358d 5fbf 87d6 1c3f
00000020: 8dda 5f3c 7883 063f 9eec 52bf 44c1 80be
00000030: b655 593f 17ca 8fbe 598c 34bd 8a20 76be
00000040: 7159 da3f 32b7 d53f afbb 973f d963 29bf
00000050: 1f06 4abe d8ae 13bf 09c8 963e a4ac 053f
00000060: 78af 1bbe be6f 303f e4f2 a93e d873 bb3e
00000070: c976 0b3d b9df b4bf 4d05 8fbf dd8a 4e3c
00000080: 2c1d 55be 9846 a3be 5668 aa3e 9049 15bf
00000090: 3cbc ad3d 29eb d0bc 4e8b 52be 3832 77bf
000000a0: f678 ee3c acdd 4bbe 1238 5cbd 1ae0 7d3e
000000b0: 8f06 333d 2927 43bd ecb0 03bf 9ed9 dd3e
000000c0: ce94 033f 07e8 983f ad64 dcbd 3fd5 13bd
000000d0: 0638 a5bf 4a27 7abc aba7 0dbf bc80 263e
000000e0: a952 29be 94e1 a1be 2fee 0ebe c860 c9bd
000000f0: a282 7e3e 14d9 d9bd 654d fd3d 9283 e53c
00000100: 89d1 803f 418c 69bd fe15 2c3f 70d0 a63f
00000110: 1153 cebe 31fa 183f 5ded 78bf fd49 96bf
00000120: fd34 cbbf d85d 26be 7085 823f a2ba 863f
00000130: 0ef5 afbf 531f 8abc db19 943e 01cc d3be
00000140: f645 d0bf 4a14 cabf 52bf 20bf 1c91 873f
00000150: 9487 ca3f 17f2 e83c d234 8cbe d87e 033f
00000160: 54ba 32bf fce5 9fbe 3b84 4abf f237 983f
00000170: a9f7 6f3f 866d 75bf 6fa0 22bf 8805 2e3f
00000180: 5164 24bf 6753 a33f c9fd 36bf e5e6 823f
00000190: 1a4a 893f 2000 373e 83c5 ec3d c64a 053f
000001a0: a76e de3e 94af 66be d199 e6be 9236 02bd
000001b0: 59b8 8bbc 5635 13bf d270 973d a2a1 90bf
000001c0: e3c6 dfbe fb47 cd3e 2aa5 2fbf 2cbb 9b3e
000001d0: 9bd5 843f 75b5 94be d5b9 c23f 719c 2dc0
000001e0: 565d 7fbf 45a3 36bc b008 9f3f 165e dc3e
000001f0: 4c6c 21be 3fc1 683f c281 803f 48eb b0bd
00000200: ab66 d63e 35c2 433e ab9c f7be 7e45 83bd
00000210: a92c 37be 4849 44bf f6cd 21be 86b8 f33f
00000220: 9282 26bf a8ca 933e e068 b43f bdfb a83e
00000230: 3512 f0be 7490 82bf f843 8f3f 7b43 8cbd
00000240: 3f4d b7be c341 d4bf ecaf 373e 077b 25bf
00000250: f98f 073f 8200 76bf 8440 4d3f 6c9b ad3e
00000260: c8aa 85bf bdd9 603e 85ea ef3e 5df4 46bf
00000270: 3bb6 14be 6eb0 afbe 51f1 a9be 8e5c 223c
00000280: e6e9 1fbf adcb a63e 5642 593f a876 1dbe
00000290: 5de1 1b3f 30d2 13bf 1d8c c1be d5fe 03bf
000002a0: 0c1a 7ebe 7dc1 a63e d760 dd3e 8235 0040
000002b0: 91f3 71bf db75 a3be cabe 71bf ce3d 373e
000002c0: b8fd 30bf 6533 9e3f d839 dbbf 57a8 a3bf
000002d0: 8c0c bb3f da01 a3bf df8b 963f 0c6b c73e
000002e0: f8c6 e13e e038 b1bf 86bd 5ebd 9fe7 20bf
000002f0: 6d63 a5bf 2b13 edbe b618 073f 247b ff3e
00000300: 8b65 b63e d1a2 77bf b1ea 8bbf 2f94 d8bf
00000310: 3966 4dbe fe81 b8be ba93 853f b7ed 2dbe
00000320: e715 4d3f 86a3 4c40 5460 533f a351 34c0
00000330: 0f79 a0bf 0ce9 87bf 713b cc3e 58d3 3cbf
00000340: 4f1c a8bf 1979 d43c 94e0 663f 626d b13f
00000350: 7de9 89bf d402 31bf 4b06 8b3f ce5b 2bbf
00000360: f71d c4bf f9dd e63f b57a 4f3f f4eb 893f
00000370: 5afd a8bf 36f4 b0bf c6c3 033f d2a9 c6bf
00000380: 21e8 543e c4fc 7a3e 803f ec3e 4319 e8bf
00000390: 5b32 313f ca51 ce3d cf3b 793d fea6 a03f
000003a0: 0c81 053f 8543 17bf 87bb 7cbf a7bb 4ebf
000003b0: 104c b5be ce9d c7be feaa 213f a8ff a43f
000003c0: 0e95 9bbf a0fe 5dbf ff96 803e 8e3d 61be
000003d0: 1562 28bf 697a b63f e2f8 c0bf 24ca 81bf
000003e0: 1215 693f 025d ddbd 8624 013f c83e 9bbf
000003f0: 1fb8 19bf 1353 1640 cc08 0fbf f6c0 5c3f

fc1.weight f4 [64, 32]
0.27440655 -0.20644532 -0.003593779 0.39209625 -0.0894746 -0.4020934 0.044640623 -0.03821783
-0.28069276 -0.11850383 -0.63262033 -0.26087004 0.119851574 -0.12830059 -0.2790908 0.16554935
-0.062360957 -0.13272819 -0.41998842 0.4293199 -0.045712538 0.1935018 -0.20393662 0.5217692
0.16799863 -0.07989257 -0.28465036 0.095335126 0.053057786 -0.1536057 -0.38269046 -0.05780551
0.20200458 -0.11266537 0.08091393 0.00640982 -0.05844342 0.050204124 -0.08618706 0.06778591
-0.13426407 0.12012034 -0.027846923 -0.020694984 0.0259943 -0.024007933 0.08702372 0.07532683
-0.13939148 -0.05058317 -0.25445756 -0.03993886 -0.049663134 0.17029712 -0.01086452 0.045089874
-0.03999811 0.072613776 0.10687825 -0.06575597 -0.018737394 -0.046275858 -0.14935333 -0.008554901
-0.64076424 -0.0066845766 0.051134687 -0.23067066 0.5601368 0.6992398 -0.107919045 -0.06487297
-0.5753264 -0.17029871 -0.3081853 0.14198484 0.42169264 0.4063683 0.059154365 0.5021972
0.22645359 0.15776923 -0.010332609 0.52765197 -0.27819428 0.06551519 -0.2894605 -0.45353353
0.47341946 -0.021277783 0.014478529 0.20144893 0.06355286 -0.37774432 -0.46198183 0.85256207
0.043674435 -0.28093925 0.12615298 0.11069217 0.91135454 -1.2777933 -0.20961669 -0.18242984
0.28967646 -0.18452677 -0.44937035 -0.39743719 0.26441792 0.12173404 -0.5838237 -0.13432477
-0.20478818 0.07813245 -1.0734898 0.010510353 0.2783804 -0.16293687 -0.1014153 0.55066717
-0.21801652 -0.33766386 -0.7239934 -0.9985147 -0.536033 -0.12943602 -0.09002348 -0.6651734
-1.0753388 0.3691369 0.61093694 -0.4397013 -1.5249952 0.62662184 0.3380916 0.021876886
0.6903606 0.08766636 1.0186687 0.57424533 -0.158211 0.27277717 0.41593614 0.6140564
0.34067506 0.2173298 0.75980777 0.9551527 -0.49679223 0.5189337 0.32828915 -0.42754796
0.7014917 0.44308788 0.94262064 0.4584099 0.5109737 0.6166127 0.16717952 1.0177243
0.13260308 0.076974064 0.13047475 -0.115112916 0.31744105 -0.09286212 -0.10975106 -0.14858842
-0.058101844 0.18877758 -0.09089719 -0.084917836 -0.11511931 0.02322236 0.126268 -0.10641176
0.04580382 0.014764547 -0.22259225 0.01598868 -0.04329548 0.09597677 0.03589588 -0.1341532
0.10693854 0.025911061 -0.21313967 -0.26599857 -0.29944155 -0.09402117 -0.0998652 -0.035823904
-0.026564695 -0.26766324 -0.08042392 -0.13550907 0.75302225 -1.4475392 0.120036215 -0.11577241
0.7546387 -0.22619972 -0.70142376 -0.51081836 0.18862766 0.19719388 -0.11283777 -0.12183779
0.08648181 0.04164331 -1.1536416 0.17128277 0.2401238 -0.14557154 -0.10550433 0.48189962
-0.030132186 -0.2729755 -0.56495136 -1.0627881 -0.6999038 -0.052335303 -0.08730273 -0.7907246
0.19228733 0.23953019 -0.21164864 -0.09189904 -0.2949612 -1.1662782 0.59592795 -0.31030405
0.2520596 -0.6920375 -0.31781343 -0.34910294 0.30685702 -0.23471105 -0.20653555 -0.10895949
0.2846947 -0.331393 -0.68604904 -0.2547957 -0.10761056 0.1157131 -0.38296494 -0.39249703
-0.2138728 0.28918156 -0.5253342 -0.05013024 -0.07287093 0.4357561 -0.3475584 0.0835314
00000000: 047f 8c3e 6766 53be 9b85 6bbb d7c0 c83e
00000010: 763e b7bd 30df cdbe 16d9 363d 4d8a 1cbd
00000020: f6b6 8fbe 23b2 f2bd 68f3 21bf c290 85be
00000030: be74 f53d 3b61 03be fde4 8ebe c585 293e
00000040: 346e 7fbd e6e9 07be b908 d7be d1cf db3e
00000050: 123d 3bbd 5625 463e c3d4 50be ab92 053f
00000060: d507 2c3e b79e a3bd b1bd 91be 103f c33d
00000070: 1f53 593d d04a 1dbe 01f0 c3be 78c5 6cbd
00000080: 4ada 4e3e 1abd e6bd 34b6 a53d 7809 d23b
00000090: 5e62 6fbd d7a2 4d3d d782 b0bd 57d3 8a3d
000000a0: 857c 09be a701 f63d 3b1f e4bc 8788 a9bc
000000b0: 00f2 d43c 49ac c4bc 7e39 b23d f444 9a3d
000000c0: a4bc 0ebe 4c30 4fbd 4348 82be ee96 23bd
000000d0: 926b 4bbd 5e62 2e3e 1a01 32bc 29b0 383d
000000e0: 0fd5 23bd 88b6 943d fce2 da3d 11ab 86bd
000000f0: 2a7f 99bc c18b 3dbd 14f0 18be db29 0cbc
00000100: 2009 24bf 4b0a dbbb 9b72 513d ee34 6cbe
00000110: 2065 0f3f 6101 333f a904 ddbd 1fdc 84bd
00000120: 9748 13bf c962 2ebe 77ca 9dbe 7964 113e
00000130: 19e8 d73e 810f d03e d94b 723d ff8f 003f
00000140: 73e3 673e 428e 213e 1a4a 29bc 3314 073f
00000150: 7b6f 8ebe d42c 863d 2b34 94be 8c35 e8be
00000160: 0964 f23e bf4e aebc 5a37 6d3c a148 4e3e
00000170: 0028 823d b467 c1be e288 ecbe 8241 5a3f
00000180: f7e3 323d 45d7 8fbe 3f2e 013e 94b2 e23d
00000190: 884e 693f bb8e a3bf c2a5 56be e3ce 3abe
000001a0: 7950 943e 96f4 3cbe df13 e6be e37c cbbe
000001b0: c961 873e b24f f93d 7875 15bf 6f8c 09be
000001c0: feb3 51be e803 a03d 1d68 89bf 9e33 2c3c
000001d0: e087 8e3e ecd8 26be d3b2 cfbd 86f8 0c3f
000001e0: b93f 5fbe 47e2 acbe a257 39bf a99e 7fbf
000001f0: 7539 09bf e08a 04be 3b5e b8bd ce48 2abf
00000200: b4a4 89bf 83ff bc3e 5d66 1c3f 8720 e1be
00000210: 0b33 c3bf 4a6a 203f 581a ad3e 2837 b33c
00000220: 79bb 303f 6c8a b33d bc63 823f be01 133f
00000230: 1002 22be 73a9 8b3e 95f5 d43e cd32 1d3f
00000240: f66c ae3e b48b 5e3e c382 423f e384 743f
00000250: 8d5b febe d7d8 043f 8415 a83e 91e7 dabe
00000260: f694 333f 6adc e23e 964f 713f b4b4 ea3e
00000270: 2ccf 023f 54da 1d3f 1c31 2b3e ca44 823f
00000280: 1ac9 073e 94a4 9d3d 2c9b 053e 52c0 ebbd
00000290: a287 a23e 7f2e bebd 2ac5 e0bd 9027 18be
000002a0: 33fc 6dbd e94e 413e 4e28 babd 67e9 adbd
000002b0: acc3 ebbd d23c be3c 664c 013e 69ee d9bd
000002c0: c99c 3b3d 00e7 713c 39ef 63be b1fa 823c
000002d0: 9a56 31bd 788f c43d 8f07 133d 755f 09be
000002e0: 9802 db3d 6f43 d43c 4941 5abe f730 88be
000002f0: 6750 99be 2c8e c0bd 2086 ccbd 16bc 12bd
00000300: 349e d9bc 280b 89be 4cb5 a4bd e4c2 0abe
00000310: 11c6 403f f748 b9bf 8cd5 f53d 161a edbd
00000320: 0030 413f e6a0 67be 8290 33bf fec4 02bf
00000330: 9c27 413e 31ed 493e 7d17 e7bd 1786 f9bd
00000340: 601d b13d 2d92 2a3d 87aa 93bf c064 2f3e
00000350: 03e3 753e b510 15be a712 d8bd 8cbb f63e
00000360: c6d7 f6bc 72c3 8bbe a7a0 10bf 7109 88bf
00000370: e52c 33bf 8b5d 56bd c6cb b2bd ed6c 4abf
00000380: f8e6 443e 6747 753e 6cba 58be 9035 bcbd
00000390: 2805 97be 9b48 95bf bc8e 183f 2ce0 9ebe
000003a0: f50d 813e 5f29 31bf 71b8 a2be 9fbd b2be
000003b0: 5d1c 9d3e 1858 70be 0e7e 53be 2726 dfbd
000003c0: 81c3 913e 58ac a9be e9a0 2fbf 9574 82be
000003d0: ed62 dcbd fdfa ec3d fb13 c4be 5ff5 c8be
000003e0: 7901 5bbe 9b0f 943e 4d7c 06bf 5e55 4dbd
000003f0: 5b3d 95bd 6c1b df3e 2df3 b1be 8312 ab3d

fc1.bias f4 [64]
-0.116655275 -0.228142 -1.2560747 -0.12066033 0.12524435 -0.20181108 -0.1555652 -0.44748178
-0.59819573 0.019534236 -0.5141981 0.12114382 -0.19241223 -0.0027847437 0.100779116 -0.29539716
-0.23280728 -0.35517147 -0.36735797 0.06875255 0.117925584 -0.060017727 -0.31958088 0.08847069
-0.40092832 0.020359833 -0.020829853 0.08231514 -0.20761918 -0.17080815 -0.39578062 -0.20073329
-0.5016989 0.13629341 -0.41166788 -0.52424943 -0.18081442 0.094647735 -0.5461572 -0.52992034
-0.06040474 -0.27501056 -0.82635367 -0.17403495 0.058130734 0.04332669 -0.39401704 -0.19661693
0.21098177 0.045826048 -0.13757478 -0.72094977 -0.51135546 -0.24926056 -0.27746654 -0.005597914
0.08860209 -0.054404326 0.21317251 0.11954316 -0.18438162 -0.103728205 -0.49898368 0.09682
00000000: f6e8 eebd 0e9e 69be 0ec7 a0bf c31c f7bd
00000010: 0e40 003e 90a7 4ebe 7c4c 1fbe 551c e5be
00000020: 5b23 19bf 4306 a03c 7da2 03bf 401a f83d
00000030: b607 45be 3f80 36bb 4865 ce3d 4c3e 97be
00000040: 0865 6ebe 09d9 b5be 5816 bcbe 23ce 8c3d
00000050: f882 f13d 26d5 75bd 1ba0 a3be 1f30 b53d
00000060: 7a46 cdbe aac9 a63c 5ea3 aabc d794 a83d
00000070: 1f9a 54be 55e8 2ebe c2a3 cabe 078d 4dbe
00000080: 576f 00bf 8090 0b3e 22c6 d2be 3635 06bf
00000090: 6a27 39be acd6 c13d f5d0 0bbf dca8 07bf
000000a0: f66a 77bd 2fce 8cbe ea8b 53bf 3836 32be
000000b0: 7e1a 6e3d 5477 313d 9abc c9be f355 49be
000000c0: 9b0b 583e 18b4 3b3d 67e0 0cbe 2a90 38bf
000000d0: 31e8 02bf 293e 7fbe 1810 8ebe b56e b7bb
000000e0: 0375 b53d 12d7 5ebd e549 5a3e 0bd3 f43d
000000f0: 89ce 3cbe 746f d4bd ca7a ffbe 9049 c63d

fc2.weight f4 [1, 64]
0.012445084 0.030516725 0.051127657 0.08866779 -0.47501376 -0.01344756 0.052853774 0.03245846
0.22259063 0.21598051 -0.1560262 -0.320556 0.07467827 0.33678883 0.43932587 -0.06876398
-0.007080689 0.034541752 -0.07054399 0.5003382 -0.71676934 0.22941081 -0.12133507 0.43913704
0.4536641 0.26703638 0.32210866 -0.2444205 -0.062246807 -0.006270994 0.03232654 0.021744883
0.05156403 -0.42210454 -0.023690019 0.11845257 0.050610136 0.34660026 0.10923356 -0.07600455
0.2981251 0.11649495 -0.09426148 0.03247194 0.33434647 -0.10276054 0.02436685 -0.19698426
-0.68056923 0.5100253 0.2312233 -0.27851707 -0.032913115 -0.012977571 0.05886167 -0.004619034
-0.42697838 0.30342945 -0.67710465 -0.33862007 -0.0011538021 0.41013464 -0.06410916 0.6425919
00000000: 77e6 4b3c 36fe f93c 3c6b 513d 7597 b53d
00000010: 0135 f3be 2853 5cbc 337d 583d 2af3 043d
00000020: ccee 633e ff29 5d3e 55c5 1fbe eb1f a4be
00000030: ecf0 983d 966f ac3e 52ef e03e 21d4 8cbd
00000040: 2005 e8bb a77b 0d3d 5e79 90bd 2a16 003f
00000050: 327e 37bf abea 6a3e 857e f8bd 92d6 e03e
00000060: a946 e83e feb8 883e 6deb a43e 5e49 7abe
00000070: 82f6 7ebd e97c cdbb d668 043d 5322 b23c
00000080: ce34 533d 161e d8be 9211 c2bc 4397 f23d
00000090: 934c 4f3d 9775 b13e d8b5 df3d 46a8 9bbd
000000a0: daa3 983e e894 ee3d 2a0c c1bd 4c01 053d
000000b0: 762f ab3e 1e74 d2bd fd9c c73c 3eb6 49be
000000c0: c939 2ebf 0591 023f cdc5 6c3e ca99 8ebe
000000d0: e7cf 06bd e19f 54bc ef18 713d 445b 97bb
000000e0: e99c dabe 1b5b 9b3e bb56 2dbf 9c5f adbe
000000f0: 2d3b 97ba 2bfd d13e aa4b 83bd e780 243f
