baseline_model_HD_64.pth (torch, 651457 bytes, 4 tensors)

embedding.weight f4 [5002, 32]
000000 78 17 79 bc 6c 82 0e bf 4c 2a 3d be 7c 5d a4 bb
       -0.015203349 -0.5566776 -0.18473166 -0.005016027
000010 97 dc 2f bf 52 4e 6c 3e 7d 23 1f bd 2a 68 78 bd
       -0.6869597 0.23076752 -0.038852204 -0.060646214
000020 5c c0 0a 3f 55 ab 95 3f d3 bf f9 be b6 04 36 bf
       0.5419977 1.1692911 -0.48779163 -0.7110094
000030 52 03 b7 bf 24 b0 d6 be 0c be 29 bf 76 a5 6a be
       -1.4297888 -0.4193126 -0.66305614 -0.22914681
000040 f1 ac 30 3f 27 1a 00 c0 5e 43 0c be 1b dd 50 bf
       0.6901389 -2.0015962 -0.13697574 -0.8158738
000050 5b 71 e5 bd 93 83 81 bf a7 74 d3 be 2d 68 8c 3f
       -0.112032615 -1.0118278 -0.41299936 1.0969292
000060 ed eb ba 3f 31 fa 6a 3e d1 4f 70 3e e0 8d 8a 3f
       1.4603249 0.22947003 0.23467948 1.0824547
000070 79 8a 2a c0 8a 4e d3 be 97 30 f3 3f 2e b0 92 3f
       -2.6647017 -0.41270858 1.8999203 1.1460016
000080 70 c9 8e be f4 1a e4 3e c3 6c 07 bf 46 69 de be
       -0.2788806 0.44551814 -0.5290033 -0.43439692
000090 14 88 a0 3f 1e 45 0b be a2 55 2e 3f bc 03 56 3b
       1.2541528 -0.13600585 0.68099415 0.0032656034
0000a0 bc c7 02 3e a3 4a ab 3e 4a b3 cb 3e bc 90 b5 3e
       0.12771505 0.3345538 0.39785224 0.35461986
0000b0 be 7b 80 3f 2b 66 07 3f af 1d 59 3f e6 52 14 be
       1.0037763 0.5289027 0.8481092 -0.14484748
0000c0 4b 78 bb be e9 15 e1 be d2 10 67 3e 27 ca 2c be
       -0.36615214 -0.4396203 0.2256501 -0.1687399
0000d0 29 1b d2 be e0 ca 95 3f 5a 11 95 bb 6b da ad 3d
       -0.41036347 1.1702538 -0.0045491876 0.084889255
0000e0 48 4e 55 be 01 92 70 3c e9 d4 03 bf c2 68 08 3e
       -0.20830643 0.014683248 -0.5149675 0.13321212
0000f0 ce 57 9d be e0 7d 32 3f b7 29 52 3f ef 10 bc 3e
       -0.30731052 0.6972332 0.820949 0.3673167
000100 2d da bf be 80 78 4a bf cb 29 89 3e 66 7e 79 3f
       -0.37471142 -0.7909012 0.26789698 0.97458494
000110 1c 3e 3c bd 5c 32 f6 3f ab ef 9d 3c 6e 6b c5 3f
       -0.04595767 1.9234118 0.019279322 1.542341
000120 13 3b 6a 3e 29 dd 18 3e f2 59 fc bf 20 1d 9d 3e
       0.22874098 0.14928116 -1.9714949 0.30686283
000130 d1 a3 88 3e cf 46 61 be 0c 72 1d 3f 07 ce 9d bf
       0.26687482 -0.21999668 0.61502147 -1.23285
000140 a4 87 14 3e db 9c c0 3f 89 9d fb be a9 8b 6d be
       0.14504868 1.5047868 -0.49143627 -0.23197807
000150 2c 67 e9 3e b6 34 9e bd 6b 0a 9a 3f 14 00 b4 bf
       0.45586526 -0.077248976 1.2034429 -1.4062524
000160 ee 1f 06 bf 9f f7 d5 3d a6 14 3a bf 05 33 0a 3f
       -0.5239247 0.104476206 -0.72687757 0.539841
000170 5f e4 c6 be ac 5f 46 3d fd c1 7f bf a7 cf ab 3f
       -0.38846108 0.048431084 -0.9990538 1.3422745
000180 4c 57 12 3f 87 7b f5 3c 24 27 16 3e 50 da 77 bf
       0.57164454 0.029966129 0.14663368 -0.96817493
000190 a8 cf 66 3f 76 56 59 bc 63 e5 a7 3e bd 15 09 3f
       0.9016061 -0.013265243 0.32792196 0.53548795
0001a0 50 4f 41 bf 36 df 7a be 62 c2 01 bc 6c b4 17 bf
       -0.75511646 -0.2449921 -0.00791988 -0.59259677
0001b0 0e 0a 49 3f a7 27 7d 3e af 8a 0d bf f8 86 0a 3f
       0.7853097 0.24722157 -0.5528974 0.54112196
0001c0 52 b2 1c 3f 4c 93 aa 3f 25 9b d7 bd 85 ca bb 3e
       0.61209595 1.3326201 -0.10527638 0.36677948
0001d0 ff 4a 5a be 85 7b ba 3e 8f f0 0d be 20 cf 1b be
       -0.21317671 0.36422363 -0.13861297 -0.1521573
0001e0 02 95 93 3f 99 46 39 3f 82 5e 42 bf a7 e8 45 3f
       1.1529849 0.7237335 -0.7592546 0.77308124
0001f0 7c b8 e7 be a2 80 25 bf 63 69 54 bf a0 f6 b8 bf
       -0.45257938 -0.64649403 -0.8297331 -1.4450264
000200 03 45 4a 3d 61 d3 66 bf f1 70 63 bf 44 69 2d bc
       0.04938222 -0.9016629 -0.8884421 -0.010584179
000210 3c 09 9a 3f f8 a6 7b 3e 88 8c e4 3e b8 ec 14 bf
       1.2034068 0.24575412 0.44638467 -0.58173704
000220 78 65 92 be 01 aa e0 3e 19 03 a7 3f a2 f3 cd 3b
       -0.2859304 0.43879703 1.304782 0.006285147
000230 d7 ec 4c bf b6 c5 04 3e cd b7 b4 3d 3b d6 6e 3e
       -0.8004889 0.12966046 0.0882412 0.2332391
000240 b4 40 cc 3e 68 4b 65 be 8b 3e eb 3f 5b 84 9a 3c
       0.39893115 -0.22392046 1.8378462 0.01886194
000250 2e 7b 19 40 a6 62 d0 3c 0b bb 98 bd 74 be 66 bf
       2.3981433 0.025437664 -0.074575506 -0.9013436
000260 8a 32 4f bf 1b ad 0a bf 29 7e a8 3f 30 21 97 bd
       -0.8093649 -0.5417039 1.3163501 -0.07379377
000270 9d 33 15 bf a7 bb c9 be ac 55 87 bf 2f b6 1a 40
       -0.5828188 -0.3940098 -1.057302 2.4173696
000280 1f f2 f9 3d e8 91 40 bf 6a 88 b4 3e dc 2a 24 3f
       0.12204384 -0.75222635 0.35260326 0.641279
000290 72 7b 8d 3f 4c 76 03 bf 20 b2 26 bf 9b ee 81 bf
       1.1053298 -0.5135238 -0.6511555 -1.0150942
0002a0 bb d2 d1 be a8 6d ff be d2 fb 10 3f 39 39 d9 be
       -0.40981087 -0.4988835 0.5663425 -0.4242647
0002b0 79 b4 6a 3f e4 fe d5 bf 82 cd 0c 40 1e 44 80 be
       0.9168163 -1.6718411 2.2000432 -0.2505197
0002c0 8b f2 3a 3e ff b3 b7 3d d7 cd a7 bf 7a b0 22 40
       0.18256585 0.089698784 -1.3109692 2.5420213
0002d0 ec 1c 12 40 91 34 83 be 2b b9 6f 3f 60 54 1b 40
       2.2830153 -0.25626042 0.9364192 2.4270248
0002e0 07 cb ec bf 00 aa 45 bf 51 01 ea 3f 52 3f 86 3f
       -1.8499459 -0.77212524 1.8281652 1.0488074
0002f0 17 20 0a be 9f e9 32 bf 3d ae 07 bd fb d7 b1 be
       -0.13488804 -0.6988773 -0.03312515 -0.34735093
000300 d4 42 93 be 9d 51 ca 3f 19 1e 8c bf 84 9e 92 3f
       -0.28761923 1.5806156 -1.0946685 1.1454625
000310 67 d2 12 be 89 41 e6 bf 3b 99 99 bf 26 cf a9 3e
       -0.14338075 -1.798875 -1.1999887 0.33165854
000320 f4 4e ef bf ab e9 7a bf 54 f1 68 bf 1c d1 90 3f
       -1.869597 -0.980128 -0.9099324 1.1313815
000330 e7 f5 3f bf a4 d8 05 3f 04 e4 f7 bf e4 db 50 bd
       -0.7498459 0.5228369 -1.936646 -0.050990954
000340 f1 a8 94 3e 82 c4 1a bf fc 7c 58 3f 94 6c 27 3e
       0.29035142 -0.604561 0.8456571 0.16350013
000350 d7 0a a9 3f d3 5d 1c be 36 f2 51 3d f2 67 57 bf
       1.3206433 -0.15270166 0.05125638 -0.8414298
000360 7d 3d aa 3f b0 2f 9b bf b4 33 07 bf 47 29 22 bf
       1.3300015 -1.2123928 -0.5281327 -0.63344234
000370 a7 f0 b6 3f fa 94 c9 3f d5 33 ff bf 00 b2 86 3f
       1.4292191 1.5748589 -1.9937693 1.0523071
000380 19 3a cd 3e f7 0b 80 3d 8b 75 86 be 8c 69 96 3f
       0.40083387 0.06252282 -0.26261553 1.175096
000390 7f 7e 07 3f b8 af 00 3f 0d d7 29 bf 07 0f 8e bf
       0.5292739 0.50268126 -0.66343766 -1.1098336
0003a0 98 99 f5 3e 13 24 c3 3f 10 ee 07 3f d4 11 65 be
       0.47968745 1.5245384 0.5309763 -0.22370082
0003b0 65 9f 62 3f ea 49 98 bf 8f 7c b3 bf 96 e0 a9 be
       0.88524467 -1.1897557 -1.4022387 -0.33179158
0003c0 be cf b1 3d 66 79 d2 be 5a 95 ba 3e 5e b1 bc 3f
       0.08682202 -0.41108245 0.3644207 1.4741628
0003d0 0a ef 01 be 15 0e bb bf d6 77 8e 3e b2 5e 42 3f
       -0.12688842 -1.4613672 0.27825803 0.75925744
0003e0 f0 f8 d9 bf 0b 28 5c bc d3 d7 7d 3e f8 81 75 bf
       -1.7029095 -0.013437281 0.24789362 -0.9590144
0003f0 0a 11 08 3f 72 02 06 bf 31 45 c5 bf f9 e0 45 be
       0.53151 -0.5234748 -1.541174 -0.19324102

fc1.weight f4 [64, 32]
000000 7a 64 d3 3e 3a 96 18 be 1b fd c1 3e 68 da 7b 3e
       0.41287595 -0.14901057 0.37888417 0.24595034
000010 3d b1 71 3e b1 e7 73 bf c2 bc 6f bd 7e 23 47 bf
       0.23602767 -0.9527541 -0.058529623 -0.7778853
000020 b2 1c ea 3e d1 9b e9 be 05 9e 06 3f 29 37 75 3f
       0.45725018 -0.4562669 0.5258487 0.9578729
000030 e6 43 16 3d 0d a6 cb 3d b1 2f b7 3e d6 d2 0f bf
       0.036685847 0.09943781 0.35778573 -0.56181085
000040 af f3 8c 3d 26 c0 e8 3e 95 1d 18 be 58 19 a6 3e
       0.068824165 0.45459098 -0.14855035 0.3244121
000050 33 16 94 3e ca fd e1 3e 22 69 be bd 9b cd 43 3f
       0.28923187 0.44138938 -0.09297396 0.76485604
000060 a8 5e 02 3e 87 05 03 c0 d6 34 0c bf 53 4b 2d bd
       0.12731421 -2.0472124 -0.5476812 -0.042308163
000070 d6 97 1d be 06 23 2a 3d e3 ee 15 3e 6e 4d cf be
       -0.15389952 0.041537307 0.1464191 -0.40488762
000080 19 f4 ea bd dc 76 95 bd 4d 8f 74 3d 2b 95 47 3e
       -0.11472339 -0.07298061 0.059706975 0.19490497
000090 97 b0 c7 3d 2d 7b 50 bb 06 ff 8e bc e9 d5 58 be
       0.09750479 -0.00318117 -0.017455589 -0.2117535
0000a0 6d 2a 16 3d 43 4c d7 bd c5 fc 8e bd c8 36 cc bc
       0.036661554 -0.10512593 -0.06981806 -0.024928465
0000b0 d4 1e ad 3d 8b 29 41 be 50 66 ed bd 14 f0 85 bd
       0.084531456 -0.18863504 -0.1159178 -0.06539932
0000c0 4e d9 14 3d 11 15 e4 bd 49 48 27 be 09 2b 9c 3d
       0.03634005 -0.111368306 -0.16336168 0.07625396
0000d0 f5 2d 03 3d 2d 62 a1 3d d7 7b cf bc 76 de 3d be
       0.03202625 0.07880054 -0.025327606 -0.18541893
0000e0 7c b8 1b 3e 13 2e 3d 3e a5 e9 db bd 36 8a 96 bd
       0.15207094 0.18474607 -0.107379235 -0.073505804
0000f0 9d 2e 31 bd 43 b5 6e be 5e d8 36 bd 4d 26 2c be
       -0.043257345 -0.23311333 -0.044639938 -0.16811486
000100 54 03 37 3f b4 ea 29 bf 17 da b0 3e 12 a3 05 3f
       0.71489453 -0.66373754 0.3454139 0.5220195
000110 7a 5a 9c 3e 9b e7 0a bf 16 ca 68 be e4 f0 b3 be
       0.30537778 -0.5425965 -0.2273334 -0.35144722
000120 51 01 2a 3f 60 4d de bd 1c e4 c4 3e 0e 83 58 3e
       0.6640826 -0.10854602 0.38455284 0.21143743
000130 6c 9b b8 be 41 b2 d0 be cc 7f bd 3e a7 60 73 bf
       -0.36056077 -0.40760997 0.37011564 -0.95069355
000140 09 ab cb 3e 7a c1 0e 3f 3e cd 33 3f ec be 28 be
       0.39778927 0.5576397 0.7023505 -0.16479081
000150 f6 6e 1d 3f cb 13 1a 3f 45 72 87 3f 41 f6 93 3e
       0.6149744 0.6018645 1.0581747 0.28898814
000160 b5 8c 43 3f a5 c3 a7 be 6d b1 31 bf a3 a0 1f 3e
       0.76386577 -0.32766452 -0.69411355 0.15588622
000170 d6 3b 1e bf 1b cc 0a 3f 7c c2 64 3e fc 93 ee bd
       -0.6181005 0.5421769 0.22339815 -0.116493195
000180 ce 5d 92 3e 3c 4b 9d be e6 aa d7 3e f4 7a 84 3e
       0.28587192 -0.30721462 0.42122573 0.25875056
000190 0e 26 a6 3e 55 0a 4c bf 1e ed 39 be 90 5f 3b bf
       0.32450908 -0.79703265 -0.1815686 -0.7319269
0001a0 64 84 d3 3e 11 ae ce be 01 cd 7a 3e 8e 72 4f 3f
       0.41311944 -0.40367177 0.24492265 0.8103417
0001b0 ec 90 db 3c 2f 0f 11 3d fa b0 5e 3e 11 9c 3d bf
       0.026802503 0.03541487 0.21747199 -0.74066263
0001c0 3b 06 3f bd 63 bb fb 3e 8e bc c8 bd ca 22 95 3e
       -0.0466368 0.49166402 -0.09801589 0.29128104
0001d0 c9 ca 3a 3e c3 78 cb 3e be ba b2 be b9 e1 1b 3f
       0.18241419 0.3974057 -0.34908098 0.608913
0001e0 f2 b7 cb 3e 0c 42 bf bf dc 41 ea be ec 21 ad bd
       0.39788777 -1.4942031 -0.45753372 -0.08453736
0001f0 18 5f da 3d dc 6b 99 3e 82 a5 0a 3e 31 33 b3 be
       0.10662669 0.29965103 0.13539699 -0.34999993
000200 43 e1 19 bd 80 23 36 bc 47 8c 36 be c5 f0 24 be
       -0.037568342 -0.011116862 -0.17826949 -0.16107471
000210 7c 64 74 be 3c f9 64 3d ed a7 96 3e 83 d3 cc 3d
       -0.23866457 0.05590175 0.29424992 0.1000128
000220 ff a4 2d 3d d7 5c 45 be 3b 70 4d be 67 41 d6 3d
       0.04239368 -0.19273697 -0.20062344 0.10461693
000230 ae 3d c2 bd 98 e9 24 3e 88 ac 0f be e2 8d 0c 3e
       -0.09484421 0.16104734 -0.14030659 0.13725999
000240 03 ab 91 bd 1f cd b1 3d cc 26 29 be 97 7e 00 bc
       -0.07112696 0.08681702 -0.16518706 -0.007842681
000250 cf d4 64 bd 90 f1 8a 3c d7 c8 50 bd 58 69 83 be
       -0.055867013 0.01696089 -0.050972786 -0.25666308
000260 81 07 f3 bd d1 03 2f bd bd d0 6f bd 5e bc 8b bd
       -0.11866666 -0.04272825 -0.058548678 -0.068230376
000270 01 e7 4e 3e ca 3c 38 be a6 f6 9b 3a 6e 81 0d 3d
       0.20205308 -0.17991939 0.0011899068 0.034547262
000280 fe 7e 63 be dd 42 9d bc 52 da 29 3d fa ce 04 3c
       -0.22216412 -0.019196922 0.041467972 0.008105988
000290 7a 22 00 be 46 e3 a0 3b 2a 95 98 bd 32 09 c5 bd
       -0.12513152 0.0049099056 -0.07450326 -0.096208945
0002a0 4e 9d f4 3d 04 ae 28 be 10 a7 23 bd d0 bb 41 3e
       0.11944066 -0.16472632 -0.039954245 0.18919301
0002b0 cb 60 bf 3d 4a d4 10 3e ab ed 78 bc 76 ab 16 3e
       0.09344634 0.14143482 -0.015193383 0.14713845
0002c0 c1 4a 5a be 5e d4 8f 3d 3b 58 a1 bd d1 bd 9e 3d
       -0.21317579 0.07022928 -0.07878157 0.07751048
0002d0 23 4d 79 bd 0a de cc 3d 3a f3 bd bc 4a 82 4e 3d
       -0.06086458 0.10003288 -0.023187269 0.050417222
0002e0 cc 69 21 3d 42 a1 15 be 50 9e c0 3d 1a 97 87 bc
       0.039407536 -0.14612296 0.09405196 -0.016551543
0002f0 10 9b 0a 3e 5f 9a 97 3c ca f8 1e be b8 e4 3a be
       0.13535714 0.018506227 -0.15524593 -0.18251312
000300 33 1b 33 bf 96 25 6f bf 7e 03 9b 3e 98 cb 22 3f
       -0.6996338 -0.93416727 0.30276102 0.6359191
000310 e5 a0 0f bf 18 e6 4e 3f d2 97 2e 3e 19 94 86 3f
       -0.5610488 0.80819845 0.17050102 1.0513946
000320 eb 07 ab be 92 cf c6 bd 2a d4 fb 3e c7 e3 93 be
       -0.33404478 -0.0970756 0.49185306 -0.28884718
000330 dd cd 93 bf 52 0b d4 be 8b c7 64 3e 42 44 d1 be
       -1.15472 -0.41414887 0.22341745 -0.4087239
000340 39 da 30 bb c6 2f 98 bf 41 61 1b 3d 59 5c d0 bf
       -0.002698554 -1.1889579 0.037934545 -1.6278182
000350 1c fb 4a 3e ef d8 1a bf 0a dd d0 bf 05 f9 3e bf
       0.19822353 -0.60487264 -1.6317456 -0.74598724
000360 1f 22 b5 3f da 29 d3 3f 40 f3 2e 3f 94 1c 25 3f
       1.4151038 1.6497147 0.6833992 0.6449673
000370 72 62 e9 be 73 76 14 bf 3a 97 a4 3f 56 d9 c8 3e
       -0.4558292 -0.5799324 1.2858651 0.39228314
000380 eb 87 06 bf 0c 5a 0b 3f 6a 18 e1 be 6d ab ec be
       -0.52551144 0.54434276 -0.4396394 -0.46224537
000390 2e 07 b0 bd 2e 9f 13 3f f1 fc e0 3e 2a a1 a1 3e
       -0.085951194 0.57664764 0.4394298 0.3156827
0003a0 0c d1 24 bf 34 b9 a7 3e ea 89 86 be 59 01 aa be
       -0.6438148 0.32758486 -0.26277095 -0.33204153
0003b0 48 4b 3a bc 90 08 22 3e 7f 9a 55 be ef ff 09 3f
       -0.0113704875 0.15823579 -0.20859717 0.5390615
0003c0 c8 aa 63 bd ea 80 ed be 9c e4 ed be 5f 4a a9 3d
       -0.05558279 -0.46387416 -0.46463478 0.08266138
0003d0 1d 26 0c bf fb 3c 80 be 3a 3b e9 be 82 a8 c5 bd
       -0.54745656 -0.25046524 -0.45553 -0.09651281
0003e0 e2 e4 ee be 84 ee d1 3e 7a 02 d2 3e 53 d1 b5 3e
       -0.46659 0.41002285 0.41017514 0.35511264
0003f0 1a 20 8f 3e 9a 46 bb be f1 4d 2f be 29 5b 88 3e
       0.2795418 -0.36577302 -0.17119576 0.2663205

fc1.bias f4 [64]
000000 8f 5e 24 be 2e 23 48 be 41 20 a9 bb d6 71 e0 bd
       -0.16051696 -0.1954467 -0.0051613157 -0.109592125
000010 1d 36 c0 bd 55 16 04 be 04 61 0b bf 35 c7 e2 3d
       -0.09385321 -0.12899144 -0.5444491 0.11073152
000020 82 20 ce 3d 98 bd 54 bd c3 df 33 bb 20 e4 13 3d
       0.10064794 -0.051938623 -0.0027446605 0.03610623
000030 c3 c5 76 bd 71 93 80 be 02 93 8b be 79 f3 3e be
       -0.060247194 -0.2511249 -0.27260596 -0.18647565
000040 d2 46 d2 3d 96 cc 94 be 9f 47 4c be 0e 01 94 3d
       0.10267414 -0.29062337 -0.19949196 0.07226764
000050 13 dc 98 3d 78 a4 6c be 08 da 21 be 1f a3 87 3d
       0.07463851 -0.23109615 -0.15805829 0.0662291
000060 b1 49 b5 be 48 d8 3b be 9e 92 38 3b 27 c2 33 be
       -0.35407785 -0.18344223 0.0028163563 -0.17554532
000070 14 f8 21 be a0 a5 9f 3d 8e 80 1d be 8c a3 22 3e
       -0.1581729 0.07795262 -0.15381071 0.158827
000080 b5 e5 d5 3c bc 64 0a 3e e1 68 03 3e 43 50 0a be
       0.02611051 0.1351499 0.12832977 -0.1350718
000090 df da 8e be 92 42 dd bd 24 8f 22 3e 7a 8d 22 be
       -0.2790136 -0.10803713 0.15874916 -0.15874282
0000a0 49 96 c8 3d 17 17 d5 bd f9 12 cf 3d 03 e3 0c 3e
       0.097942896 -0.10404795 0.101110406 0.13758473
0000b0 33 e7 38 be e8 e9 e8 bd cb f1 5c be 06 db ef bd
       -0.18056946 -0.11372739 -0.21576612 -0.11711697
0000c0 65 d6 30 3d 20 37 8e be 7b 84 c3 3d 1e 1d 24 3c
       0.043173213 -0.27776432 0.09546753 0.010016708
0000d0 c9 b6 b6 be f4 9d ea bc b3 51 3e be 6e 87 0f 3d
       -0.3568633 -0.028639771 -0.18585853 0.035041265
0000e0 ea b5 22 3c ca 6a 75 be ab d5 4b bd 76 ac c6 3d
       0.009931067 -0.23966518 -0.049764317 0.09700863
0000f0 ea 01 44 be db 0d ba 3d d8 4c b9 be 79 0d c7 3c
       -0.19141355 0.09084674 -0.3619144 0.024298416

fc2.weight f4 [1, 64]
000000 76 93 03 3f 2e f7 26 bd 10 b4 2d 3f 6c 67 5b 3e
       0.5139688 -0.040763073 0.6785288 0.21426171
000010 6d 3a 81 3c 2e 75 5b bd 78 ab 70 3f 1b bc 7a be
       0.01577493 -0.053578548 0.9401164 -0.24485819
000020 6b f3 a5 be f8 4a a0 3e a7 bd 9c 3e ac ef cf be
       -0.32412276 0.31307197 0.30613443 -0.40612543
000030 4e 87 73 3f 4f c3 3c 3d 6f f3 e1 3c bf 95 bb 3d
       0.95128334 0.0460847 0.027581898 0.09159421
000040 45 91 15 3f f5 39 ea bb e9 5d 04 3d a4 35 7a be
       0.5842479 -0.0071480223 0.032316122 -0.24434525
000050 9d b5 0b bf ac 8a 39 3d 11 1f 6b 3c 0e 30 3e 3f
       -0.54573995 0.045298263 0.0143506685 0.74292076
000060 c1 64 a0 bd 2e 1c 54 3b e8 09 52 bd 67 d5 ea 3e
       -0.07831717 0.003236543 -0.05127898 0.45865938
000070 ac f3 8c 3d f2 cd 1e bf 2c 57 bc bc 77 13 21 bf
       0.06882414 -0.62033 -0.022990786 -0.62920326
000080 b4 06 3b be 51 2c 15 bf 4c a7 aa be 98 16 5c 3d
       -0.18264276 -0.58270746 -0.33330762 0.053732485
000090 1a cf b9 3c 09 d6 f8 3d 8f 03 15 bf ac 9b 98 3c
       0.022681762 0.12150199 -0.58208555 0.018628918
0000a0 f3 7a 67 be 52 ee aa 3d ee b7 f4 3e ab 0e 91 be
       -0.22605495 0.08346237 0.47796577 -0.28331503
0000b0 7f 08 af 3a 06 ff 16 3d ac 3d bd 3e 50 05 f5 3b
       0.0013353972 0.036864303 0.36961114 0.00747744
0000c0 db fc 19 be 33 83 04 be 9b 6d 90 3e af 29 35 3f
       -0.15037863 -0.12940674 0.28208622 0.7076673
0000d0 da d9 86 bd 51 28 c0 bb a1 3b a6 bd 3c 8e fd 3e
       -0.06584521 -0.005864181 -0.08116842 0.4952258
0000e0 cd e7 f8 3d 6a 56 48 3e 9e a1 62 bd b1 35 3b bf
       0.121535875 0.19564214 -0.05532991 -0.731288
0000f0 0b 76 73 3c 12 de 06 3f 3c 73 e3 bd 40 0e eb 3e
       0.014859687 0.526826 -0.111059636 0.4590931
