baseline_model_HD_128.pth (torch, 660170 bytes, 4 tensors)

embedding.weight f4 [5002, 32]
0	0x3f88f744	1.070046
1	0xbf83684d	-1.0266205
2	0x3f9a4b70	1.2054272
3	0x3f462cd2	0.7741214
4	0x3f06cf2a	0.5265986
5	0x3f41c445	0.7569011
6	0xbf267621	-0.65024
7	0x3d83066e	0.06397711
8	0xbf33e1b3	-0.70266265
9	0x3f60e5d5	0.87850696
10	0xbf0b7e6f	-0.544898
11	0xbf2c0b15	-0.6720441
12	0xbf2c5b92	-0.67327225
13	0xbf28f50b	-0.65998906
14	0xbf142f38	-0.5788455
15	0x3efae2f6	0.49001282
16	0x3fe04656	1.7521465
17	0x3f507147	0.8142285
18	0xbe445afd	-0.19175334
19	0xbf1faa8f	-0.62369627
20	0xbf34002e	-0.70312774
21	0x3e29ce27	0.16582547
22	0x3f6bd510	0.9212198
23	0xbf90f8f3	-1.1325973
24	0xbf473525	-0.7781547
25	0xbf1d6b14	-0.61491513
26	0x3ef90e51	0.48643735
27	0xbe8b09e7	-0.27155992
28	0x3f638858	0.8887992
29	0xbfd97087	-1.6987466
30	0xbfbc4de2	-1.4711268
31	0xbe8896eb	-0.2667764
32	0xbda719cc	-0.08159217
33	0x3db336d3	0.08750691
34	0x3f9ce65c	1.22578
35	0xbd9f31d2	-0.07773174
36	0x3f1cfb7e	0.61321247
37	0x3d4142af	0.047182735
38	0x3f026ea3	0.5095007
39	0x3f078285	0.5293353
40	0x3df3da80	0.1190691
41	0x3d28278a	0.041053332
42	0xbf0101c3	-0.50393313
43	0x3cdad6f5	0.026713828
44	0xbed83032	-0.4222427
45	0x3e92d614	0.28678954
46	0xbebfdf0c	-0.3747486
47	0x3f08a360	0.5337429
48	0xbfc50fb9	-1.5395423
49	0x3f6ddf72	0.92919075
50	0xbe703341	-0.23457052
51	0xbf2efcc0	-0.68354416
52	0xbe3b3830	-0.18283153
53	0xbf3c7884	-0.7362139
54	0xbf6bc11a	-0.92091525
55	0x3f1fdbf8	0.6244502
56	0xbf866eb8	-1.0502539
57	0x3db9fa4f	0.09080946
58	0x3ed88244	0.42286885
59	0x3e78cd94	0.24297172
60	0x3ea46ae9	0.32112816
61	0xbfcbf8f6	-1.5935352
62	0xbe3fffd9	-0.18749942
63	0xbe17dcce	-0.14830324
64	0x3f142a4d	0.57877046
65	0x3f8bce1b	1.0922273
66	0x3f260694	0.6485379
67	0xbd8b0bf5	-0.0678939
68	0xbfc1bb14	-1.5135217
69	0xbf498ce4	-0.7873061
70	0x3f1b5f04	0.6069186
71	0x3ee74957	0.4517314
72	0x3ed624fa	0.41825086
73	0xbf27233c	-0.6528814
74	0xbf7fb5b0	-0.9988661
75	0x3f972f50	1.1811314
76	0x3f54f0ff	0.8318023
77	0xbf059b8a	-0.5219046
78	0x3c00074c	0.00781424
79	0xbeb6ab56	-0.35677594
80	0x3c9a0d20	0.018805087
81	0xbefa5be5	-0.48898235
82	0x3fd3bb49	1.654153
83	0x3fa38b6f	1.2776927
84	0xbe5f0288	-0.2177831
85	0xbfb6887a	-1.4260399
86	0xbfaa442d	-1.3302056
87	0x3fe99f3c	1.825172
88	0x3d46d5b7	0.048543658
89	0x3de3c058	0.11120671
90	0xbf932f9e	-1.1498907
91	0xbf8da9e0	-1.1067467
92	0xbf57c891	-0.84290415
93	0xbeed15bb	-0.46305642
94	0x401762ad	2.3653977
95	0x3eafe665	0.34355465
96	0x3f193649	0.5984846
97	0x3e58842b	0.21144168
98	0x3db43d2c	0.0880073
99	0xc008d115	-2.1377614
100	0xbf413fe0	-0.7548809
101	0x3f90a78f	1.1301135
102	0xbf206218	-0.6264968
103	0xbe083803	-0.13302617
104	0xbe528f96	-0.20562586
105	0xbfa0eabb	-1.2571634
106	0x3fa919ea	1.3211033
107	0x3ee834e3	0.4535285
108	0x3eb5bcf3	0.3549572
109	0xbdcb4fa0	-0.09927297
110	0xbe12a31b	-0.14320032
111	0x3e636db4	0.22209817
112	0x3fff5ca4	1.9950147
113	0xbec8987b	-0.39178833
114	0x3f11e502	0.56990063
115	0x3f674456	0.9033865
116	0x3e1071c1	0.14105894
117	0x3f457649	0.77133614
118	0x3f7bfc94	0.9843228
119	0xbf29ee55	-0.6637929
120	0x3f08a631	0.5337859
121	0x3f2e3d74	0.6806252
122	0x3f870f4b	1.0551542
123	0xbf06d051	-0.52661616
124	0xbededb5a	-0.43526727
125	0xbf4ff3c9	-0.8123136
126	0xbf4e7e46	-0.8066143
127	0x3f016075	0.50537807
128	0x3f7cd4cb	0.98762196
129	0xbfc64f74	-1.5492997
130	0x3e4d388b	0.200411
131	0xbf496fb2	-0.7868606
132	0x4011d689	2.2787192
133	0x3ea2c45a	0.3179043
134	0x3ec9979b	0.39373478
135	0x3f697b81	0.91204077
136	0x3fbe7cf0	1.4881878
137	0x3e774c7b	0.24150269
138	0x3f20ef75	0.6286538
139	0xbff4c552	-1.9122717
140	0x3fed3def	1.8534526
141	0x3fb75502	1.4322817
142	0xbe820661	-0.25395492
143	0xbf4a812e	-0.7910336
144	0xbf9a9c0c	-1.2078872
145	0xbea3e131	-0.32007745
146	0x3fe2af52	1.7709754
147	0xbf48dd57	-0.7846274
148	0xbecdebac	-0.40218866
149	0x3fd0689c	1.6281924
150	0xbf897d7a	-1.0741417
151	0x3f33f0f6	0.7028955
152	0xbe8a1d44	-0.26975453
153	0xbe7cf317	-0.24702106
154	0x3f2f8139	0.68556553
155	0x3fb2c243	1.3965534
156	0x3f295e1b	0.6615922
157	0x3fd9da20	1.7019691
158	0xbf86e42c	-1.0538383
159	0x3f5e1ced	0.8676289
160	0xbe783aa1	-0.24241115
161	0x3ef0bdd6	0.47019833
162	0x3f4a80ca	0.79102767
163	0x3f180edb	0.5939767
164	0x3f7ca758	0.98692846
165	0xc03fdf39	-2.9979994
166	0x3f9fb92b	1.2478384
167	0x3e0e0dc7	0.13872443
168	0xbfe467b2	-1.7844145
169	0x3f0e6f31	0.55638415
170	0x3f94f442	1.1637042
171	0xbf391487	-0.7229695
172	0x3f72365e	0.9461421
173	0xbf21c312	-0.6318828
174	0xbed35bc6	-0.41280955
175	0x3f09846c	0.53717685
176	0x3f5557b2	0.8333694
177	0xbec8ccb6	-0.39218682
178	0x3f412be2	0.75457585
179	0x3f4b06a6	0.7930702
180	0x3f63a6bf	0.8892631
181	0x3f852f5b	1.0405077
182	0xbf8ed15b	-1.115764
183	0xbef82415	-0.48465028
184	0xc001ed11	-2.0300944
185	0xbf8bbf80	-1.0917816
186	0x3f71d15b	0.94460076
187	0x3fabaf50	1.3412876
188	0xbfe0f680	-1.7575226
189	0x3ff80407	1.9376229
190	0x3e8318f7	0.25604984
191	0x3f13a64a	0.5767561
192	0xbf8b38b3	-1.0876678
193	0x3f754ec5	0.9582332
194	0x3d5beb01	0.053690914
195	0x3f6bb718	0.92076254
196	0x3f43c405	0.7647098
197	0xbe292e51	-0.16521575
198	0x3f77a887	0.9674153
199	0x3f37e132	0.71827996
200	0x3e9de32f	0.3083739
201	0xbfcfec51	-1.6243993
202	0x3f72d691	0.9485865
203	0x3eeb6664	0.45976555
204	0x3fdc0dae	1.7191675
205	0x3e466aed	0.19376726
206	0x3f8d51df	1.104061
207	0xbfc4c47f	-1.5372466
208	0xbb3b9bba	-0.0028626756
209	0xbf2a567a	-0.665382
210	0xbf7b7c5e	-0.98236644
211	0xbe02d3c9	-0.12776102
212	0xbe866f4a	-0.26256782
213	0x3f470b4d	0.7775162
214	0xc043f3a4	-3.0617456
215	0x3f9027d1	1.1262151
216	0x3fa88f5b	1.3168749
217	0x3e636aaf	0.22208665
218	0x3fb05bf5	1.3778063
219	0x3f627454	0.8845875
220	0x3f4a105c	0.7893121
221	0xbedb01be	-0.42774767
222	0x3e62849a	0.22120896
223	0x3f29b4b2	0.66291344
224	0xc02f132b	-2.735545
225	0x3dc10861	0.09425426
226	0xbfb8646a	-1.4405644
227	0x3f88a8e3	1.067654
228	0x3fc9e842	1.5774004
229	0x3fc6d238	1.5532904
230	0x3ef3d317	0.47621986
231	0x3fc42eb1	1.5326749
232	0x3ef48c5e	0.47763342
233	0xbe2bd7e4	-0.16781574
234	0xbee6de26	-0.4509136
235	0xbf7e531d	-0.9934557
236	0xbf15885d	-0.584112
237	0xbfb1c7b7	-1.3889073
238	0xbfaaf9a5	-1.3357435
239	0xbf862ae7	-1.0481843
240	0xbe6b72f8	-0.22993076
241	0x3fd360ce	1.6513917
242	0xbf77fbdc	-0.9686868
243	0x3ee6d5d8	0.45085025
244	0x3de6856c	0.11255917
245	0x3ffc888f	1.9729174
246	0x3dda5cc9	0.106622286
247	0x3ed0e00d	0.40795937
248	0x3fb4e568	1.4132509
249	0xbe419b5b	-0.1890692
250	0xbfa86c5d	-1.315807
251	0x3f9cf655	1.2262675
252	0xc007dcfe	-2.1228633
253	0xbfd377df	-1.6520957
254	0xbe12349f	-0.14277886
255	0xbfee285b	-1.8606066

fc1.weight f4 [128, 32]
0	0xbe8ea1b2	-0.2785774
1	0xbeab8c07	-0.3350527
2	0xbdbf3ec5	-0.09338144
3	0x3c18e1ae	0.00933115
4	0xbf0b66fc	-0.54454017
5	0x3d19afe0	0.037521243
6	0xbe9d4994	-0.30720198
7	0xbef844e9	-0.48490074
8	0xbd67e2d2	-0.056612797
9	0xbe6eb86f	-0.23312543
10	0x3e5a1fc6	0.21301183
11	0x3f036b94	0.51336026
12	0xbddc450d	-0.10755358
13	0xbdca9e43	-0.09893467
14	0x3ecd19e8	0.40058827
15	0xba32e783	-0.0006824659
16	0xbae68c2b	-0.0017589381
17	0x3e4dca78	0.20096767
18	0xbdcb82b0	-0.09937036
19	0xbd8de038	-0.06927532
20	0xbdb9eb46	-0.09078078
21	0xbe57704a	-0.21038929
22	0x3e81aa2a	0.25325137
23	0xbd1ff827	-0.039055016
24	0x3ea60ea5	0.32433048
25	0x3dceba54	0.10094133
26	0x3dfc18cf	0.12309419
27	0x3d153f19	0.036437128
28	0xbe3f1e3c	-0.18663877
29	0x3eb0d1a5	0.34534946
30	0x3e80b60d	0.25138894
31	0xbe887203	-0.26649484
32	0xbf3327fd	-0.6998289
33	0x3e38d1ac	0.18048733
34	0xbe9bbf0e	-0.304192
35	0xbf124933	-0.57142943
36	0xbed7923d	-0.42103758
37	0x3ef83f38	0.48485732
38	0xbe7fe108	-0.24988186
39	0x3e59831f	0.21241425
40	0xbf5cdcfc	-0.86274695
41	0xbedaaf6a	-0.42711955
42	0xbee2597b	-0.44208893
43	0xbeb87580	-0.36027145
44	0xbf001f25	-0.5004752
45	0xbebfb15d	-0.37440005
46	0x3e2d2076	0.16906914
47	0x3e5bc075	0.21460135
48	0x3e385730	0.1800201
49	0xbe655adb	-0.2239794
50	0x3ede46bc	0.4341334
51	0xbe118211	-0.14209773
52	0x3dce9523	0.10087039
53	0xbead2339	-0.33815935
54	0xbe87fa17	-0.2655799
55	0x3e5c7b83	0.21531491
56	0x3de413dc	0.111366004
57	0xbf803699	-1.0016662
58	0xbf1607ea	-0.58605826
59	0x3f024247	0.5088238
60	0x3f394507	0.7237095
61	0xbd021615	-0.03175934
62	0xbe6b5145	-0.2298022
63	0x3f00446f	0.5010442
64	0xbf129018	-0.5725112
65	0x3e0b5855	0.13607915
66	0xbe3f2914	-0.18668014
67	0xbeb9d972	-0.3629871
68	0xbe88086f	-0.26568934
69	0x3e626703	0.22109608
70	0xbe51d680	-0.20491982
71	0x3d97ec1c	0.07418081
72	0xbf323049	-0.6960493
73	0xbea31146	-0.31849116
74	0xbef819fd	-0.48457327
75	0xbf1dbd3f	-0.6161689
76	0xbf085650	-0.532567
77	0xbee8607e	-0.45386118
78	0x3e4e3a20	0.2013936
79	0x3e52f6b2	0.2060192
80	0x3e9a3b89	0.30123547
81	0xbdba1b2c	-0.09087214
82	0x3f1a4234	0.6025727
83	0xbe373140	-0.17889881
84	0xbe4c4b1a	-0.19950524
85	0xbedc2832	-0.42999417
86	0xbe858c9d	-0.26083842
87	0x3e7e480e	0.24832174
88	0x3e4fdc8b	0.20298974
89	0xbf87d302	-1.061127
90	0xbf1f6d3d	-0.6227606
91	0x3f2b99cb	0.67031544
92	0x3ec97a97	0.3935134
93	0xbe563a6a	-0.2092072
94	0xbe4f4a7a	-0.20243254
95	0x3e997abc	0.2997645
96	0x3ef1b3cb	0.47207484
97	0x3ed7dc88	0.4216044
98	0x3dc9b385	0.09848694
99	0x3f3524d0	0.70759296
100	0x3eb2ffde	0.34960836
101	0xbf2f2679	-0.6841808
102	0x3eb7f636	0.35930032
103	0xbe1c43dd	-0.15260263
104	0x3f8093cf	1.0045108
105	0x3eaeefa7	0.34167215
106	0x3ea7e89a	0.32794648
107	0x3f62be72	0.88571846
108	0x3efdbf32	0.49559933
109	0x3ee4e525	0.44706073
110	0xbe97169f	-0.29509446
111	0xbebe4023	-0.37158307
112	0xbe44b46a	-0.19209448
113	0x3e46e1c2	0.19422057
114	0xbf1ebbda	-0.6200539
115	0x3ee9dffa	0.45678693
116	0xbf08ebdf	-0.5348491
117	0x3f073488	0.5281453
118	0x3e1ba82b	0.1520087
119	0xbe5c1ee2	-0.21496156
120	0xbea1655f	-0.31522653
121	0x3f3c1d73	0.73482436
122	0x3f0327d1	0.5123263
123	0xbeadbfbe	-0.3393535
124	0xbf229034	-0.63501287
125	0x3e84a50d	0.25907174
126	0x3e60b396	0.21943507
127	0xbe4e6667	-0.20156251
128	0xbf47e4a8	-0.78083277
129	0x3e4c40e9	0.19946636
130	0xbeaee92b	-0.34162268
131	0xbe9c06d5	-0.30473962
132	0xbe1d81d6	-0.1538156
133	0x3e4d144b	0.20027272
134	0xbe012b6e	-0.12614223
135	0x3ea390f7	0.31946537
136	0xbf5ca2d8	-0.8618598
137	0xbef1531c	-0.4713372
138	0xbec03c91	-0.37546209
139	0xbf1381a7	-0.5761971
140	0xbed0b78b	-0.40765032
141	0xbee84dbb	-0.45371804
142	0x3eaeef7a	0.3416708
143	0x3e9719a6	0.29511756
144	0x3e5d30e0	0.21600676
145	0xbe1b70e7	-0.15179788
146	0x3f36ea51	0.7145129
147	0xbec28ada	-0.3799656
148	0xbdc98137	-0.09839099
149	0xbe17ca55	-0.14823277
150	0xbe9f454d	-0.3110756
151	0x3e631cd3	0.22178964
152	0x3e83f1fc	0.25770557
153	0xbf927981	-1.144333
154	0xbebe681a	-0.37188798
155	0x3f233af0	0.63761806
156	0x3f1db90f	0.616105
157	0xbe927bd6	-0.28610104
158	0xbe2994f9	-0.16560735
159	0x3ed8b61a	0.42326432
160	0x3ddb9f5b	0.10723754
161	0xbc73568a	-0.0148521755
162	0xbed67679	-0.41887262
163	0xbe653349	-0.22382845
164	0xbe12f39b	-0.1435074
165	0xbdd5b517	-0.10434931
166	0x3cf22482	0.029558424
167	0xba0ab876	-0.0005291769
168	0x3e0ea489	0.13929953
169	0x3d23d6d9	0.039999817
170	0x3d3a37b8	0.045463294
171	0x3e29d0d9	0.16583575
172	0xbe603951	-0.21896864
173	0x3eb0083a	0.34381276
174	0x3e1f00d5	0.15527661
175	0x3e5d38ba	0.2160367
176	0xbe59691f	-0.21231507
177	0xbe23fe33	-0.16014938
178	0xbdf43037	-0.11923259
179	0xbf2077f1	-0.62683016
180	0xbc727c29	-0.01480011
181	0xbe79c393	-0.24391012
182	0x3d81795f	0.06321978
183	0x3e7c6629	0.24648346
184	0xbdc9b993	-0.098498486
185	0x3e4d606c	0.20056313
186	0xbddb7940	-0.10716486
187	0xbd2c6f7a	-0.0420985
188	0x3e4d8e54	0.20073825
189	0x3eb10011	0.34570363
190	0x3d0271a2	0.03184665
191	0x3e81febb	0.25389656
192	0x3f73669f	0.9507846
193	0xbe27eeb6	-0.16399655
194	0x3ea0f182	0.31434256
195	0x3ee7a670	0.4524417
196	0x3e9d0841	0.3067036
197	0xbee04756	-0.43804425
198	0x3eaa4287	0.3325388
199	0xbe9cc15d	-0.30616274
200	0x3f6cb876	0.92468965
201	0x3f44f802	0.7694093
202	0x3e117bcb	0.1420738
203	0x3eeb45bc	0.4595164
204	0x3f051eb2	0.5199996
205	0x3e94684e	0.28985828
206	0xbee5cdf7	-0.448837
207	0xbf0824a4	-0.5318091
208	0x3d292b69	0.041301165
209	0x3ecf3735	0.40471807
210	0xbe9c93b6	-0.30581445
211	0x3e7a1f2c	0.24425954
212	0xbee965ad	-0.45585385
213	0x3eed33ab	0.46328482
214	0x3e76684e	0.24063227
215	0xbe975765	-0.29558864
216	0xbf02ed86	-0.5114368
217	0x3eff3cdb	0.49851117
218	0x3f24bd7e	0.6435164
219	0xbf64f5d3	-0.894376
220	0xbebe7499	-0.37198332
221	0x3d411719	0.04714117
222	0x3e9706e3	0.29497442
223	0xbf1c90bb	-0.6115834
224	0x3d63c82b	0.055610817
225	0xbd58fc40	-0.05297494
226	0x3dc10fb5	0.09426824
227	0x3e284bff	0.1643524
228	0x3dbc2c16	0.09188096
229	0xbe879348	-0.26479554
230	0x3d052b6c	0.032512113
231	0xbe22b74f	-0.15890239
232	0x3e287b7a	0.16453353
233	0x3de13975	0.10997287
234	0x3e1089ea	0.1411511
235	0xbd835d2b	-0.06414255
236	0xbde56912	-0.11201681
237	0xbdc7a581	-0.09748364
238	0xbd4881b5	-0.048951823
239	0xbe0f8966	-0.14017257
240	0xbca70fc8	-0.020393267
241	0x3dda24ba	0.10651536
242	0x3d2315db	0.039815765
243	0xbc234d8c	-0.009967219
244	0xbda3f910	-0.08006489
245	0xbdf06e9e	-0.117398486
246	0x3d99fef1	0.07519329
247	0x3d10a6c5	0.035315294
248	0x3e434201	0.19068147
249	0x3e35267f	0.17690466
250	0xbe41879c	-0.18899387
251	0xbe056fed	-0.13030978
252	0xbd410ed0	-0.047133267
253	0x3dbc5d5e	0.09197496
254	0x3e113e3d	0.14183898
255	0x3cf3ad1d	0.029745633

fc1.bias f4 [128]
0	0xbf27b448	-0.6550946
1	0x3dc7836a	0.09741862
2	0xbcbdcd0c	-0.023169063
3	0x3e56a821	0.20962574
4	0xbc9ce25c	-0.019150905
5	0xbe4d3459	-0.200395
6	0xbad7f315	-0.0016475642
7	0xbe2f8f3e	-0.17144486
8	0xbd069b99	-0.032863233
9	0xbeabf5ef	-0.3358607
10	0xbe4fa1e7	-0.20276605
11	0xbe14e6fb	-0.14541237
12	0x3d888252	0.066654816
13	0x3da7a039	0.08184857
14	0xbcf046d8	-0.029330656
15	0xbdd8b21e	-0.10580848
16	0xbd37ccfe	-0.04487323
17	0xbefbdb9c	-0.49190986
18	0xbe9e8991	-0.3096433
19	0xbe8f8d1d	-0.28037348
20	0xbf0b81ed	-0.54495126
21	0xbe564889	-0.20926107
22	0xbf2bf7c1	-0.6717492
23	0xbe5f7de0	-0.21825361
24	0xbe64c252	-0.22339752
25	0xbebb6d76	-0.3660695
26	0x3e1772f7	0.1478995
27	0xbed4e07d	-0.4157752
28	0xbf01dad5	-0.50724536
29	0xbddd02fb	-0.10791584
30	0xbe9e8eca	-0.30968314
31	0x3d951123	0.07278659
32	0x3d5f3445	0.054493207
33	0xbf023a5d	-0.50870305
34	0xbd7be968	-0.06150189
35	0xbf025116	-0.5090498
36	0xbd4d1de5	-0.050077338
37	0xbe67e017	-0.22644077
38	0x3db3fef1	0.087888606
39	0xbdf56c7d	-0.11983583
40	0xbe86971c	-0.26287162
41	0xbe49047f	-0.19630621
42	0x3e118634	0.1421135
43	0xbee83846	-0.45355433
44	0xbecf6dba	-0.40513402
45	0xbc2e02cf	-0.010620787
46	0xbf21e059	-0.6323295
47	0xbe8263e5	-0.25466838
48	0xbe8d0a89	-0.275471
49	0xbdf3a08c	-0.11895856
50	0xbe787076	-0.2426165
51	0xbe61cb3e	-0.22050187
52	0x3e12aeb8	0.14324462
53	0xbdd91713	-0.10600104
54	0x3c343a9a	0.0110003
55	0x3d82338a	0.063574865
56	0xbf0dfd90	-0.5546503
57	0x3e48f378	0.19624126
58	0xbe0c0a25	-0.13675745
59	0x3dc3adfe	0.09554671
60	0xbca12eb3	-0.019675588
61	0xbe8cbff0	-0.27490187
62	0xbe0b0009	-0.13574232
63	0xbdf6bd35	-0.12047807
64	0x3de9b524	0.11411503
65	0xbdff0c75	-0.12453548
66	0xbe6c47e2	-0.23074296
67	0xbd56e107	-0.052460697
68	0xbe0e9271	-0.1392305
69	0x3bc0a94e	0.0058795577
70	0x3c1f145d	0.009709445
71	0x3d840612	0.0644647
72	0x3dbda794	0.092604786
73	0xbd737d9c	-0.059445962
74	0x3e5208e9	0.20511211
75	0xbdf22bff	-0.11824798
76	0xbd30ac9b	-0.04313336
77	0x3da63df4	0.08117285
78	0xbe16069d	-0.1465096
79	0x3e058269	0.13038029
80	0xbeb0edb7	-0.34556362
81	0xbe263b6f	-0.1623361
82	0xbecebd38	-0.40378737
83	0xbe83789a	-0.2567795
84	0xbe005d86	-0.12535676
85	0xbec13ce4	-0.37741768
86	0xbe394b25	-0.18095072
87	0xbe1d2baa	-0.15348688
88	0xbdf8ce6e	-0.12148748
89	0xbd0edf74	-0.03488107
90	0x3d0d6eba	0.034529425
91	0xbe525c8e	-0.2054312
92	0xbe5ddbd5	-0.2166589
93	0xbe5649b0	-0.20926547
94	0x3e0b539a	0.1360611
95	0x3e0f562f	0.1399772
96	0xbf446295	-0.76712924
97	0xbd6c4b93	-0.05768926
98	0xbe52fc5a	-0.20604077
99	0xbe6304c9	-0.22169794
100	0xbe644918	-0.22293508
101	0xbe22c193	-0.15894155
102	0xbe7d2f91	-0.24725176
103	0x3b90cb15	0.0044187405
104	0xbe04764e	-0.12935755
105	0xbdfb7d94	-0.122798115
106	0xbe38a8f3	-0.18033199
107	0xbe8c67fe	-0.2742309
108	0xbe876b01	-0.26448825
109	0xbe7001ae	-0.23438141
110	0xbe0ed4b4	-0.13948327
111	0xbdd7423f	-0.10510682
112	0xbee677e7	-0.45013353
113	0x3cea2138	0.028580293
114	0x3dfffa9c	0.12498972
115	0x3dad63fa	0.08466335
116	0x3e28e719	0.16494407
117	0xbe8ad8d0	-0.2711854
118	0xbe9c4b79	-0.3052633
119	0xbb15d2be	-0.0022861208
120	0xbe68c3a1	-0.22730877
121	0xbe38a1f7	-0.18030535
122	0xbe0e66e1	-0.13906433
123	0x3c74278d	0.014902008
124	0x3d39001f	0.04516613
125	0x3c2542a3	0.010086688
126	0xbef3a147	-0.47583982
127	0xbd9d7d98	-0.07689971

fc2.weight f4 [1, 128]
0	0xbc1731ad	-0.009228152
1	0xbea5984a	-0.3234275
2	0xbe250f01	-0.16119005
3	0x3ef62ce2	0.48081118
4	0xbeae2391	-0.3401151
5	0xbd882ba3	-0.06648948
6	0x3f12f70c	0.57408214
7	0xbd03f838	-0.03221914
8	0x3ca3f646	0.020014893
9	0xbe393bd6	-0.18089232
10	0xbc7a6fe6	-0.015285468
11	0x3d45cfee	0.048294
12	0xbf3a8a69	-0.7286745
13	0x3ed9fbe4	0.4257499
14	0x3cb1a799	0.021686362
15	0x3e8b6029	0.27221802
16	0x3e8b23ac	0.27175653
17	0xbdd58a81	-0.10426808
18	0xbc5ca033	-0.013465929
19	0xbd9ac55d	-0.07557175
20	0x3ec769cf	0.38947913
21	0x3b27f184	0.0025626132
22	0x3e4ede64	0.20202023
23	0xbba1b33e	-0.0049346974
24	0xbd8fb52a	-0.07016976
25	0x3e2a030f	0.1660273
26	0xbeca8e66	-0.39561766
27	0x3d045501	0.03230763
28	0x3dacc25f	0.08435511
29	0xbd1df494	-0.038563326
30	0xbe119461	-0.14216758
31	0x3db0e3b4	0.08637181
32	0xbeae83a1	-0.340848
33	0x3e9060fb	0.2819899
34	0xbdd0919b	-0.10184022
35	0x3e764a42	0.24051765
36	0x3e3c151c	0.18367428
37	0x3c4d63a9	0.012535968
38	0x3ee89a42	0.4543019
39	0xbd3ceb76	-0.04612299
40	0x3dc1c401	0.09461213
41	0x3ec485e1	0.38383391
42	0xbeadd986	-0.3395502
43	0xbf090e15	-0.5353711
44	0xbe92be1f	-0.28660676
45	0x3ec8f8cd	0.3925232
46	0xbf30ad8d	-0.6901482
47	0xbd63c598	-0.055608362
48	0xbd8f748e	-0.07004653
49	0x3d0b15d1	0.033956353
50	0xbc8ce005	-0.017196665
51	0x3d03a95c	0.032143936
52	0x3ef1c4ad	0.47220364
53	0x3cca0134	0.024658777
54	0xbe88baac	-0.2670492
55	0x3ef252a0	0.47328663
56	0x3ebea972	0.37238652
57	0x3ee53e12	0.44773918
58	0x3c5609c8	0.0130638555
59	0x3e9c42c2	0.30519682
60	0x3cad93c7	0.02118863
61	0x3d623b78	0.055232495
62	0xbe2348b9	-0.1594571
63	0x3f0559d4	0.5209019
64	0xbdb7675c	-0.08955261
65	0xbc2b087c	-0.010439035
66	0x3e135e88	0.1439153
67	0x3e95b0a9	0.29236344
68	0xbd59e2b3	-0.053194713
69	0x3ece322f	0.40272662
70	0xbf1b92e5	-0.6077102
71	0xbe49d8ce	-0.1971161
72	0xbe9c194f	-0.3048806
73	0x3cb496e2	0.022044603
74	0xbf03eb28	-0.51530695
75	0xbc2d53df	-0.010579078
76	0x3e40a1f8	0.18811786
77	0x3f3ca928	0.7369561
78	0xbcdb37cf	-0.02676001
79	0xbead9422	-0.3390208
80	0xbf1699ac	-0.58828235
81	0x3c6bec05	0.014399533
82	0x3e5da7ca	0.21646038
83	0x3da8f653	0.082501076
84	0x3ba1ceca	0.0049379813
85	0x3e7aedb9	0.24504746
86	0x3d16e7c0	0.036842108
87	0xbc3b7c7a	-0.011443252
88	0xbcf1820b	-0.029480955
89	0xbd931a76	-0.071827814
90	0x3edb68cf	0.428534
91	0x3d89bea6	0.067258164
92	0x3e7536bd	0.23946662
93	0x3c44bf33	0.012008476
94	0xbf1791bf	-0.59206766
95	0x3eb808c2	0.35944182
96	0x3ee33d1c	0.4438256
97	0x3ea7d9e8	0.32783437
98	0xbd8a5ecd	-0.06756363
99	0x3f22f04d	0.6364792
100	0xbc7167e2	-0.01473424
101	0xbe2e7a4f	-0.17038845
102	0x3c4783ca	0.012177417
103	0xbd132e0a	-0.03593258
104	0x3d8708aa	0.065934494
105	0x3dee1244	0.11624578
106	0x3ca846f4	0.020541646
107	0x3d23f24b	0.04002599
108	0x3c83938c	0.016061567
109	0xbc537f58	-0.012908779
110	0x3d4e417a	0.050355412
111	0xbd4fa650	-0.050695717
112	0xbe2630c4	-0.1622954
113	0xbddcfa16	-0.107898876
114	0xbeb8ebab	-0.361173
115	0xbe8f5d10	-0.2800069
116	0x3edc1e43	0.42991838
117	0xbe562e20	-0.20916033
118	0xbed4c4f0	-0.415565
119	0x3e3fe72a	0.18740526
120	0x3d20bd1d	0.039242852
121	0x3c7c0531	0.015382097
122	0x3d4ffa44	0.05077578
123	0xbe99517e	-0.29944986
124	0xbe813b7c	-0.25240695
125	0x3ea9f10f	0.33191726
126	0xbe64c9e4	-0.2234264
127	0x3f257719	0.64634854
