baseline_model_HD_32.pth (torch, 647105 bytes, 4 tensors)

embedding.weight f4 [5002, 32]
0	0xbf080135	-0.5312684
1	0xbe4af02c	-0.19818181
2	0x3e026019	0.12731971
3	0x3e54283a	0.2071847
4	0x3ecc78af	0.39935824
5	0x3e000954	0.12503558
6	0x3e937b16	0.28804845
7	0xbebcb04b	-0.3685325
8	0xbe7c38c3	-0.24631028
9	0x3f8096fd	1.0046078
10	0x3f64a5a1	0.8931523
11	0xbf62ba8a	-0.88565886
12	0x3e7127b4	0.23550302
13	0xbeb8bd94	-0.36082137
14	0x3f3872d2	0.720502
15	0x3f25dfa0	0.6479435
16	0xbeb26519	-0.34842756
17	0xbdcf8749	-0.101332255
18	0x3f5f58fd	0.8724516
19	0xbfe89cbb	-1.817283
20	0x3eacb388	0.3373072
21	0x3eed3f1a	0.46337205
22	0xbf33de88	-0.7026143
23	0x3fb9234b	1.4463896
24	0x3f3816eb	0.7190997
25	0x3fc44af5	1.5335375
26	0xbebeea15	-0.37287965
27	0x3e5baeac	0.21453351
28	0xbe154442	-0.1457682
29	0x3e7e97b2	0.24862555
30	0xbd6c1454	-0.057636574
31	0x3f5272ef	0.82206625
32	0x3db3966c	0.08768925
33	0xbe817c8c	-0.25290334
34	0x3e6f5e4b	0.23375814
35	0x3edba86a	0.42901927
36	0xbd0727b4	-0.03299685
37	0x3ee8fc4e	0.45504993
38	0xbf13bf46	-0.57713735
39	0x3f10f89a	0.56629336
40	0xbf4421cd	-0.76614076
41	0xbe8ef47d	-0.27920905
42	0xbec771d5	-0.38954034
43	0xbc621fd2	-0.013801532
44	0x3ea808d6	0.3281924
45	0x3f8f10a7	1.1176957
46	0x3de02bd9	0.10945863
47	0x3f4cb996	0.7997068
48	0x3ef4a1ab	0.47779593
49	0xbdc8a2b6	-0.0979666
50	0x3f6f3302	0.93437207
51	0xbe0d6310	-0.1380732
52	0xbe0a3a34	-0.13498765
53	0xbcaf5935	-0.021404842
54	0x3d57f330	0.052722156
55	0x3f24f992	0.64443314
56	0xbddb94b6	-0.10721724
57	0x3f5d10e8	0.8635392
58	0xbea9b9c4	-0.3314954
59	0x3ced1b68	0.028943732
60	0x3e0da419	0.1383213
61	0x3e81aba2	0.25326258
62	0x3f11b39f	0.56914705
63	0xbef59677	-0.47966358
64	0x3f0849d6	0.53237665
65	0xbf3a744c	-0.72833705
66	0xbeb4dec9	-0.35326222
67	0xbfd20fb0	-1.6411037
68	0x3e4cde21	0.2000661
69	0x3ebe35ca	0.37150413
70	0x3f6455d6	0.89193475
71	0x3d84cc94	0.06484333
72	0xbc515e98	-0.012778901
73	0x3ef6dc01	0.48214725
74	0x3eee82e3	0.46584234
75	0x3f9efb0c	1.2420363
76	0x3f55d5e7	0.83529514
77	0xbee3ab9d	-0.44466868
78	0x3f98eba2	1.194691
79	0xbd43bdda	-0.04778848
80	0xbf690010	-0.9101572
81	0x3fa43d50	1.2831211
82	0x3fbdc8af	1.4826869
83	0x3fc8a455	1.567515
84	0xc01793c3	-2.3683937
85	0x3d3a8f08	0.04554656
86	0x3f6d4971	0.9269019
87	0xbf91a57a	-1.1378624
88	0x3f9fef61	1.2494928
89	0x3f727c67	0.9472107
90	0x3ec0a367	0.37624666
91	0x3ff1bfaa	1.8886616
92	0xbebc1e48	-0.36741853
93	0xbedfae9c	-0.43687904
94	0xbf943804	-1.1579595
95	0xbf96917c	-1.1763148
96	0xbd8bb100	-0.068208694
97	0x3fbfe620	1.4992104
98	0xbf83115e	-1.0239675
99	0xbf085c99	-0.5326629
100	0xbd3dd618	-0.046346754
101	0x3f90a771	1.1301099
102	0x3d727242	0.059190996
103	0xbea0b25e	-0.31386083
104	0x3f6a2990	0.9146967
105	0xbe824740	-0.25444984
106	0xbec47c64	-0.38376153
107	0x3f10aa52	0.5650989
108	0x3f9d0e98	1.2270079
109	0x3f272d5b	0.6530358
110	0xbfe601fa	-1.7969353
111	0xbf9ae3d1	-1.2100774
112	0xbf5f267a	-0.87168086
113	0xbf903b12	-1.1268027
114	0x3fb6ba2f	1.4275569
115	0xbf9c9343	-1.2232441
116	0x3f23f508	0.64045763
117	0xbec923fc	-0.39285266
118	0x3f97e24d	1.1865937
119	0x3f14e171	0.58156496
120	0xbec133ec	-0.37734926
121	0xbfbf9b1d	-1.4969212
122	0x3f2ab42c	0.6668117
123	0xbdd60997	-0.10451048
124	0xbfd05636	-1.627631
125	0x3ef70ab4	0.48250353
126	0xbfaf5ccd	-1.3700196
127	0xbe5b5589	-0.21419348
128	0xbe52b834	-0.2057808
129	0x3f3c8306	0.73637426
130	0xbeb67321	-0.3563471
131	0x3f124070	0.57129574
132	0xbed9cfff	-0.425415
133	0xbd386cbf	-0.045025583
134	0x3f7aec82	0.9801713
135	0x3f979c7c	1.184463
136	0x3ffa7db7	1.9569615
137	0x3f893b26	1.0721176
138	0x3f3e7778	0.74401045
139	0xbf97b60c	-1.1852431
140	0xc00b1b4f	-2.1735418
141	0xbeb011c7	-0.34388563
142	0xbf27c8d4	-0.65540814
143	0xbff5267f	-1.9152373
144	0xbca6b122	-0.020348135
145	0x3f69f186	0.9138416
146	0x3fa6ca9e	1.3030584
147	0x3f0e12e6	0.55497587
148	0xc02c8d22	-2.696114
149	0xbf3c7472	-0.7361518
150	0xbdb8107a	-0.08987518
151	0xc00cec66	-2.2019286
152	0x3f0ca8d0	0.5494509
153	0x3f8caf71	1.099104
154	0xbe97e569	-0.29667214
155	0xbe87f4a7	-0.26553842
156	0xbdbc49fa	-0.091937974
157	0x3f00dda2	0.50338185
158	0x3f868035	1.0507876
159	0x3f489dc2	0.7836572
160	0x3f3d8aee	0.74040115
161	0x3f15865a	0.5840813
162	0x3f96d5a9	1.1783954
163	0x3d1e4e08	0.038648635
164	0xbe8c7ccf	-0.2743897
165	0x3e02fb7a	0.12791243
166	0x3f39a47d	0.72516614
167	0x3e6490bc	0.22320837
168	0x3fb6c869	1.427991
169	0xbe1c502d	-0.1526496
170	0x3d32fce5	0.04369821
171	0x3df72cbb	0.120690785
172	0xbe834557	-0.2563884
173	0x3d9159d1	0.07097209
174	0x3e117c93	0.14207678
175	0xbec679f1	-0.3876491
176	0x3ee6f333	0.4510742
177	0xbe9400c1	-0.28906825
178	0x3e82cc91	0.25546697
179	0xbf41cbd6	-0.75701654
180	0x3fe572a8	1.7925615
181	0xbf65552c	-0.89583087
182	0xbf5ba963	-0.8580534
183	0xbf0116db	-0.504255
184	0xbfce1f83	-1.6103367
185	0xbd0182d7	-0.03161892
186	0x3fc18c52	1.5120947
187	0xbfac6cb6	-1.3470676
188	0x3f724d24	0.9464896
189	0x3e78c9a5	0.24295671
190	0xbe409458	-0.18806589
191	0x3e8cbb8e	0.27486843
192	0xbfd739e5	-1.6814543
193	0xbff87d9c	-1.9413333
194	0xbf0e105f	-0.5549373
195	0x3f9efe84	1.2421422
196	0xbfb671ee	-1.4253519
197	0xbf59f4e5	-0.85139304
198	0x3f96d3c8	1.178338
199	0xbd360ce2	-0.04444588
200	0x401b72b9	2.428877
201	0xbf031df3	-0.51217574
202	0x3df8dbce	0.121512994
203	0x3e82de32	0.25560147
204	0xc018837b	-2.383025
205	0x3e542333	0.20716552
206	0xbef4e3f7	-0.47830173
207	0xbf2401b2	-0.64065087
208	0xbeff2548	-0.4983313
209	0x3f968564	1.1759458
210	0x3f1ccfac	0.6125438
211	0xbef7238c	-0.48269308
212	0xbe1eb574	-0.15498906
213	0xbd8c86c1	-0.0686164
214	0x3f4502bf	0.76957315
215	0xbf61b80f	-0.88171476
216	0x3f583e88	0.84470415
217	0x3fa86abd	1.3157574
218	0x3f2f3697	0.6844267
219	0xbe9517ba	-0.29119664
220	0x3f9e0706	1.2345893
221	0xbe24cc52	-0.16093567
222	0xbf1bb448	-0.6082196
223	0x3f49b93e	0.7879828
224	0x3fe8c5ae	1.8185327
225	0xbf241f27	-0.64110035
226	0xbee41a48	-0.445513
227	0xbdf92198	-0.121646106
228	0xbe28253c	-0.16420454
229	0xbff6aa8e	-1.9270799
230	0xc00ac385	-2.1681836
231	0xbf34a288	-0.70560503
232	0x3fb5fe4d	1.4218231
233	0xbf8f3d7a	-1.1190636
234	0xbf1178b2	-0.5682479
235	0xbf4db41d	-0.80352956
236	0xbe8d9fc6	-0.2766096
237	0x3f21cc15	0.6320203
238	0x3dc5fd5d	0.09667466
239	0xbdfd8d55	-0.123804726
240	0x3f7ca88a	0.9869467
241	0x3ed0203c	0.40649593
242	0x3f5997c5	0.84997207
243	0x3f619592	0.8811885
244	0xbdb33930	-0.08751142
245	0x3ef4cc71	0.47812226
246	0xbf9d1bfe	-1.2274168
247	0x3f15f4d8	0.58576727
248	0xbfc9ae47	-1.575631
249	0xbf3ba7c4	-0.73302865
250	0xbee11c69	-0.43966988
251	0xbf1716c3	-0.59019107
252	0x3fb152a2	1.3853343
253	0xbef99b1d	-0.48751155
254	0xbe0de693	-0.13857488
255	0x3d95625c	0.07294151

fc1.weight f4 [32, 32]
0	0x3fb2d737	1.3971928
1	0xbec2d397	-0.38052055
2	0x3f3aa87f	0.72913355
3	0x3e3be93a	0.18350688
4	0xbf97a181	-1.1846162
5	0x3eaa119a	0.33216554
6	0xbe32f414	-0.17475921
7	0x3e889be6	0.2668144
8	0x3c94e71c	0.018176608
9	0x3f011485	0.50421935
10	0xbf153327	-0.5828118
11	0xbeedb626	-0.4642803
12	0x3efbb02f	0.49157855
13	0x3e8c2a4a	0.27376014
14	0x3f2a5181	0.66530615
15	0xbc5bc445	-0.0134134935
16	0xbf070298	-0.5273833
17	0x3f0f263f	0.55917734
18	0xbe990f9b	-0.2989472
19	0xbe1eff63	-0.1552711
20	0xbecd2be7	-0.40072557
21	0xbf3d9233	-0.7405121
22	0x3f2a76cc	0.6658752
23	0xbeb21d33	-0.34787902
24	0x3f72362f	0.9461393
25	0xbdc19693	-0.09452548
26	0x3ebcdef9	0.36888865
27	0xbf786cf3	-0.97041243
28	0xbf29dc89	-0.66352135
29	0xbdd5cbb9	-0.10439248
30	0xbf057012	-0.5212413
31	0x3eb1b34a	0.347071
32	0x3d35aa30	0.044351757
33	0xbdb135aa	-0.08652814
34	0x3df44fb6	0.11929266
35	0xbe40ae67	-0.18816529
36	0xbeb2d4f1	-0.34928086
37	0xbdd3cada	-0.10341425
38	0xbdca877a	-0.09889121
39	0xbe0a215e	-0.13489291
40	0xbdbc17c8	-0.091842234
41	0xbe0ac385	-0.13551147
42	0x3dca6faa	0.098845795
43	0x3e23f0ca	0.16009822
44	0xbd95d183	-0.07315352
45	0xbdef8403	-0.11695101
46	0x3db51913	0.08842673
47	0x3db2cf57	0.08730953
48	0xbe197e17	-0.14989506
49	0xbd353ae3	-0.044245612
50	0xbde7122e	-0.112827644
51	0x3dcf98f7	0.101365976
52	0x3e161ff9	0.14660634
53	0x3d045b3c	0.03231357
54	0xbe2b7fb7	-0.16747938
55	0xbe3d568b	-0.18490045
56	0x3cec2a90	0.02882889
57	0xbe1fa6f6	-0.15591034
58	0x3c9fad87	0.019491924
59	0x3e68d5ab	0.22737758
60	0x3c9c8c5f	0.019109903
61	0xbe09b7c8	-0.13449013
62	0x3b9fc75e	0.0048760613
63	0xbdc35baa	-0.09538968
64	0xbe29e1c6	-0.16590032
65	0xbe1e68bd	-0.15469642
66	0x3cf889b7	0.030339105
67	0xbe34614c	-0.17615241
68	0x3e9ea55a	0.30985528
69	0xbde3e1a2	-0.111270204
70	0x3de62699	0.11237831
71	0x3d75a65d	0.05997311
72	0xbd867c40	-0.065666676
73	0xbc4db3bb	-0.012555058
74	0x3d8a411b	0.06750699
75	0x3e4f0428	0.20216429
76	0x3e2027b8	0.15640152
77	0xbdc965af	-0.09833848
78	0x3da4ab27	0.08040457
79	0x3c9c4b2e	0.019078817
80	0x3e0f6197	0.14002071
81	0xbe0466f7	-0.12929903
82	0xbdfebddf	-0.12438559
83	0x3d37bb98	0.044856638
84	0x3e98a5f1	0.29814103
85	0xbe0c4c0d	-0.13700886
86	0x3b64d894	0.003491913
87	0x3c3fb794	0.011701483
88	0x3d40b6ab	0.047049206
89	0xbcec5a98	-0.028851792
90	0x3e2af90b	0.16696565
91	0x3da23460	0.07920146
92	0x3de721ea	0.112857655
93	0xbdee5382	-0.116370216
94	0xbe0bf8c6	-0.13669118
95	0x3d97c1e1	0.07410026
96	0xbedd895a	-0.43268853
97	0x3f143d6e	0.57906234
98	0xbf753c91	-0.9579554
99	0xbefa5aa5	-0.4889728
100	0x3f39d3df	0.72588915
101	0xbecd252e	-0.40067428
102	0x3ebba2ee	0.36647743
103	0xbf15da1f	-0.5853595
104	0x3e2c0914	0.16800338
105	0xbf259a84	-0.646889
106	0x3f08f510	0.53498936
107	0x3d659cf9	0.056057904
108	0xbef46500	-0.47733307
109	0xbd04ec4c	-0.032451913
110	0xbf728c03	-0.9474489
111	0x3e814655	0.25248972
112	0x3f0dfee1	0.5546704
113	0xbf1cd350	-0.6125994
114	0x3e49f537	0.19722448
115	0x3f03aee7	0.51438755
116	0x3e94abe7	0.290374
117	0x3f6e4695	0.9307645
118	0x3ea4774c	0.32122266
119	0x3ef29d29	0.4738553
120	0xbf409019	-0.75219876
121	0x3ed32562	0.41239458
122	0xbf091141	-0.5354195
123	0x3f9446fa	1.158416
124	0x3f83d089	1.0298015
125	0x3f1c56a7	0.6106972
126	0x3eb44364	0.35207665
127	0xbeeb866e	-0.46001
128	0x3e9976c3	0.2997342
129	0xbdc419f7	-0.09575265
130	0x3cb267a2	0.021777932
131	0xbe20c242	-0.15699103
132	0xbdd86ea2	-0.105679765
133	0xbddf2637	-0.10895961
134	0xbd9f8ec1	-0.077909
135	0xbdb839d3	-0.08995404
136	0xbda93cb4	-0.08263531
137	0x3db1433e	0.086554036
138	0xbdf2513d	-0.11831901
139	0x3d07bf3c	0.03314136
140	0x3de3c91d	0.11122344
141	0xbe483ee2	-0.19555238
142	0x3de5912c	0.1120933
143	0x3e18e782	0.14932063
144	0x3e001d19	0.125111
145	0xbd87f915	-0.066393055
146	0x3c062c2c	0.008189242
147	0x3d177a0d	0.03698163
148	0xbdeb6d5f	-0.1149547
149	0x3c76c901	0.0150625715
150	0x3dd42a58	0.10359639
151	0xbdd3bf21	-0.10339189
152	0xbd5660d7	-0.052338447
153	0xbd8e242b	-0.06940492
154	0x3d4b811c	0.049683675
155	0xbe0227af	-0.1271045
156	0xbdf42ef7	-0.1192302
157	0xbdae49d4	-0.08510175
158	0x3d51f0f3	0.051255178
159	0xbd31876c	-0.04334204
160	0xbeb170d6	-0.346564
161	0x3f1a8be7	0.60369724
162	0xbf869a62	-1.0515864
163	0xbf05a88c	-0.5221031
164	0x3f2cafe1	0.6745587
165	0xbe822ed1	-0.25426343
166	0x3edfa975	0.43683973
167	0xbeaeddbb	-0.34153542
168	0x3eba92f6	0.36440247
169	0xbf49ad02	-0.78779614
170	0x3f130995	0.57436496
171	0xbd52b880	-0.051445484
172	0xbf303b18	-0.6884017
173	0x3d9c845f	0.07642435
174	0xbf54df78	-0.83153486
175	0x3ecfc70d	0.4058155
176	0x3ef3d7e3	0.47625646
177	0xbf3ecef1	-0.7453452
178	0x3e5f2a2f	0.21793436
179	0x3f066b96	0.52507913
180	0x3eec0bc5	0.4610273
181	0x3f818e2b	1.0121511
182	0x3efa8be6	0.4893486
183	0x3f071464	0.5276549
184	0xbf12129d	-0.5705965
185	0x3ed01b9e	0.4064607
186	0xbeb4e677	-0.3533208
187	0x3fb013ff	1.3756102
188	0x3f737010	0.9509287
189	0x3f30ef15	0.6911481
190	0x3e8c0364	0.27346337
191	0xbe941fc3	-0.28930482
192	0xbe1049b5	-0.14090617
193	0x3f373375	0.7156289
194	0xbf8c624f	-1.0967501
195	0xbe4fb1fe	-0.20282742
196	0x3f11102e	0.56665313
197	0xbee23f8f	-0.44189116
198	0x3f10ca31	0.5655852
199	0xbe8a2254	-0.26979315
200	0x3eb194d8	0.3468387
201	0xbf80ba61	-1.0056878
202	0x3efb5b08	0.4909289
203	0xbcdf6da9	-0.02727397
204	0xbf46712f	-0.77516454
205	0x3dd1306c	0.10214314
206	0xbf3cf7bc	-0.7381551
207	0x3e79ce9c	0.24395221
208	0x3ebf4571	0.37357667
209	0xbf1b5a54	-0.60684705
210	0x3e39fff9	0.18164052
211	0x3e69d6cb	0.22835843
212	0x3eac774e	0.33684772
213	0x3f68345b	0.9070489
214	0x3eb6a829	0.3567517
215	0x3f4e55d7	0.8059973
216	0xbefe17e2	-0.49627596
217	0x3ee745ba	0.45170385
218	0xbf03c8b9	-0.51478153
219	0x3fc2eb0c	1.5227981
220	0x3f3f1412	0.7464
221	0x3f0bc7d4	0.5460179
222	0x3ec2e864	0.38067925
223	0xbf105ea1	-0.5639439
224	0x3f8fff18	1.1249723
225	0xbef628f5	-0.48078123
226	0x3f55fdb9	0.83590275
227	0x3ecee55b	0.4040936
228	0xbf89e37b	-1.0772547
229	0x3e35f6f8	0.17769992
230	0xbef82ce7	-0.48471758
231	0x3e6a9e2a	0.22911897
232	0xbd1c8d39	-0.038220618
233	0x3ed0c182	0.40772635
234	0xbf199bbf	-0.60003275
235	0xbefef900	-0.49799347
236	0x3f39c1e5	0.72561485
237	0x3ebcde7a	0.36888486
238	0x3f01c3ba	0.5068928
239	0xbce5733e	-0.028009053
240	0xbec96cfb	-0.39340958
241	0x3f0d0cd9	0.5509773
242	0xbe413a51	-0.18869902
243	0xbe948b03	-0.29012308
244	0xbec2f750	-0.3807931
245	0xbf62cf6e	-0.8859776
246	0x3f5eb1d9	0.86990124
247	0xbef3b8ed	-0.47602025
248	0x3f08fef6	0.5351404
249	0xbe90d87d	-0.28290167
250	0x3f232a2f	0.6373624
251	0xbf72c8f9	-0.9483791
252	0xbf120d1c	-0.57051253
253	0xbecc9b70	-0.3996234
254	0xbedbc48c	-0.4292339
255	0x3e1f87c2	0.15579131

fc1.bias f4 [32]
0	0x3cb6b78b	0.022304317
1	0xbe2e7a2c	-0.17038792
2	0xbe6a8120	-0.2290082
3	0x3dff717d	0.12472818
4	0xbdf0c15d	-0.11755631
5	0x3c96f210	0.018425971
6	0xbd8a4eb8	-0.06753296
7	0x3de3f66a	0.11130984
8	0xbe9b3f38	-0.3032167
9	0xbe41b270	-0.18915725
10	0xbe6c0807	-0.23049937
11	0xbd06ac89	-0.032879386
12	0x3d89fc68	0.06737596
13	0xbd032bf7	-0.03202435
14	0xbdccbfc2	-0.099975124
15	0xbea527b9	-0.32256868
16	0xbe800178	-0.2500112
17	0x3dab0489	0.083504744
18	0xbe6b423e	-0.22974488
19	0xbdb0f502	-0.086404815
20	0xbde29213	-0.11063018
21	0x3e0e62f6	0.13904938
22	0xbe7f615d	-0.24939485
23	0xbe7a8073	-0.24463062
24	0x3de106b4	0.10987607
25	0x3d2cc158	0.042176574
26	0x3db7cbc5	0.08974413
27	0xbdd75236	-0.10513727
28	0xbe077463	-0.13227992
29	0x3af613a8	0.0018774169
30	0xbe63933f	-0.22224139
31	0xbe666b0e	-0.22501776

fc2.weight f4 [1, 32]
0	0x3f139269	0.5764528
1	0xbd8b013c	-0.06787345
2	0xbe1551a7	-0.14581929
3	0xbf29e544	-0.66365457
4	0x3c135a74	0.008993734
5	0xbf16cc58	-0.58905554
6	0xbf2e4cd3	-0.68085974
7	0x3f2e2635	0.6802705
8	0xbd927e99	-0.07153053
9	0x3f1d8445	0.6152995
10	0x3dae361d	0.08506415
11	0x3f070316	0.52739084
12	0xbf7657e1	-0.9622784
13	0x3f703e3c	0.9384496
14	0x3d2aa9de	0.041665904
15	0xbd045d6d	-0.03231566
16	0x3d6b7834	0.05748768
17	0xbf6d1f4b	-0.92625874
18	0x3e0d7038	0.1381234
19	0x3de2e47f	0.110787384
20	0xbcf08cf7	-0.029364092
21	0x3f444a2e	0.7667569
22	0x3ee24e9a	0.44200593
23	0xbd539e1f	-0.051664468
24	0x3f129ee6	0.5727371
25	0x3f3f30a4	0.74683595
26	0x3f440962	0.7657682
27	0x3f130dde	0.57443035
28	0x3dea01b0	0.11426103
29	0xbed048ed	-0.40680638
30	0xbcaa18d8	-0.0207638
31	0x3cba2651	0.022723349
