baseline_model_BS_16.pth (torch, 651457 bytes, 4 tensors)

embedding.weight f4 [5002, 32]
00000000: 4180 71bf 611e a8bf dbd6 aabf 8096 bdbf
00000010: e399 763e 0dce 023e c644 093c 9abf b1be
00000020: dc1e f23f c418 29bf 0fa0 e6be 1907 04c0
00000030: 6ad2 9ebf 8956 28c0 f068 f43e 4a00 b3be
00000040: 5a5a c5bf 7df7 303f 9edd a4bf 5b18 503e
00000050: ab9c f93e 6aa3 7f3e e5a4 503f b785 d73e
00000060: cd05 8bbd 88e3 cfbe cf06 aa3f 5175 82bf
00000070: f130 00bf 1820 4ebf e47c 8a3e af81 b73e
00000080: 785b 06bd 567c 80be faca 11bb 936d cc3e
00000090: ac7d 6dbe 7e73 5abb e4c9 d9bb d1ed aebc
000000a0: 5dec c4bc 6a01 08bc 3181 b13e 8269 fbbc
000000b0: 47d0 62bd 79aa a53e b539 643d 2b17 3fbd
000000c0: 2c09 7f3e 3d59 f33c cdf0 843d 70d3 d5bc
000000d0: 0427 d0bd 6610 3dbe 9f33 ae3d 622e 89bd
000000e0: daca 95bd 2761 8f3d 9910 c3bd 6512 143d
000000f0: fd0f be3d 273b a33e 73e7 04bf 48b1 3c3d
00000100: 8829 66bf 31af a83f 7091 733f bd2e c0be
00000110: bdca b0be 9e13 b03e 3d42 463f 048a c83e
00000120: bc9e 1ec0 d38d c73e 774b b7be 0709 45bd
00000130: c175 0abf 409a a73f 0caa 3b3e 8f93 97be
00000140: 42a2 153f 3fe9 16bf e134 9b3e ddf3 2fbf
00000150: 8ef3 9bbf 9573 083f 1a85 7abf 10aa d23f
00000160: 060c cebd ef43 9dbf 166f 883e 8095 263f
00000170: abd2 3cbd 7d05 ec3e 9967 2fbf f7ef 093d
00000180: b2ef 5cbe 529c cfbe 8fab 433e f14b ce3d
00000190: 4f60 f83e 75f8 a5bf 342b 7c3f 393a 5a3f
000001a0: ccb1 843d 762f 813f 2ac8 12bf af7d b73e
000001b0: 0608 18bf f342 8abe cf00 533e 7aed 953f
000001c0: 0310 a23f 8d1e 3b3f f848 143d c36a 15bf
000001d0: f47f b7be 931d b03f e213 b1be 0031 debe
000001e0: 35a7 5d3f d51d 55be d4aa c9bd dcf0 c5be
000001f0: 1877 31bb ffa1 413f dfe6 6b3f 2ab6 143d
00000200: 0890 3ebe 2de8 3d3f 8e6b 67bf e91c 763d
00000210: ba1a 2f3f 5fc8 873f 1b4a e43e cbc7 17bf
00000220: a2e5 68bf 7475 0f3f c548 ce3e 3441 7d3f
00000230: fee1 ea3f 2007 153e a6d2 96bf 55c5 c9bc
00000240: b574 89bf 7604 9d3e bf1e ec3e 6782 813f
00000250: b185 26bf b789 41bf 6139 fe3e 46e6 9cbd
00000260: dfa6 8cbf aa74 bf3f cc19 e2be b162 75bf
00000270: 1a2f 60be 8067 bb3e 3326 e13f c259 e4be
00000280: 6768 b73f 2178 203f 52db 8c3e 4c28 79be
00000290: 2b7a 5f3f 7b23 67bf 1a7b efbd bd41 053f
000002a0: 062b c8be b93e dfbe 7cd5 f13e b5b4 883f
000002b0: 0ab6 4f3e 4aaa 2c3f 86da f03f e4ef 15be
000002c0: 9bf9 5f3f e70e a4be 6392 b23f 10d2 d8bc
000002d0: eed0 293f 80e8 0c3f ba72 3c3f 596d f13d
000002e0: 2d3f ca3e 1da8 99bf 56c9 26bf a534 5a40
000002f0: 6c3a 9f3f 0183 6e3e d123 70bf e6e7 55bf
00000300: 26bb 9f3f cfe0 213f 1d80 a93f dbe6 4f3f
00000310: a43c 903e fe9f babd 4c7b 3d3f 3082 a1be
00000320: e8f7 a73f b8c4 0cbf 336e 2e3f 4ffa 003f
00000330: 73c3 a0bf f8f1 ba3e 6ac9 a5be 6310 933f
00000340: 51e0 b1bf 1ed5 823f ca91 cfbd f1dd f0be
00000350: a6ec e7bf 8e67 64be ddb2 f0be 2e02 93bf
00000360: 02fe 41bf d2c7 083f 2e8b 26bf 9d58 623e
00000370: b6ef 81bf cacd ffbf e60e 523f 84af 863f
00000380: ef37 1cbf b719 583e e09e edbe 7627 2740
00000390: 0fb2 343e 032d eebb dae3 bb3d 03ca f9be
000003a0: d125 6bbf 3c9b 93bf 230f 45be 2513 693f
000003b0: 4ec3 6d3e efba d93f d5a7 02bf 7efa 553f
000003c0: b7e3 eabf f889 2ec0 a4d1 913f cdcf fc3e
000003d0: 22cb f6be 121f 40bf 0755 b3bf 698a 143f
000003e0: 827f 51bf e2f8 a9bf fe22 1ebf 6c37 55bf
000003f0: 864f ca3e 0534 ebbe c7c0 b8be 8908 573f
-0.94336325 -1.3134271 -1.3346819 -1.4811554 0.2408214 0.12773915 0.008378213 -0.34716493
1.8915668 -0.66053414 -0.4504399 -2.0629332 -1.2407963 -2.6302817 0.4773631 -0.34961158
-1.5418198 0.6912764 -1.2880132 0.20321791 0.4875234 0.24964681 0.8150161 0.42094204
-0.06788216 -0.4060328 1.3283328 -1.0192052 -0.5007468 -0.8051772 0.2704841 0.35841128
-0.032802075 -0.2509486 -0.0022246228 0.39927348 -0.23192471 -0.0033333 -0.0066463817 -0.021353634
-0.024038488 -0.008301118 0.34668878 -0.030689958 -0.05537441 0.32356623 0.055719096 -0.046652954
0.24905843 0.029705638 0.064912416 -0.026101798 -0.10163692 -0.18463287 0.0850594 -0.066983
-0.073140815 0.07000952 -0.0952465 0.036150355 0.09280393 0.31881067 -0.51915663 0.046067506
-0.8990712 1.3178464 0.95143795 -0.37535658 -0.34529677 0.34389967 0.7744482 0.39167798
-2.4784384 0.3897539 -0.35799763 -0.048104312 -0.5408593 1.3093948 0.18326586 -0.29604766
0.5845071 -0.58949655 0.3031378 -0.6873148 -1.2183702 0.53301364 -0.97859347 1.6458149
-0.10060887 -1.2286357 0.26647252 0.6507187 -0.046099346 0.46097937 -0.6851745 0.033676114
-0.21575812 -0.4054895 0.19108413 0.100730784 0.48510978 -1.2966448 0.9850342 0.8524509
0.064792246 1.0092609 -0.57336676 0.35838076 -0.5938724 -0.27004203 0.20605777 1.1713097
1.2661136 0.7309349 0.0362024 -0.5836603 -0.35839808 1.3759025 -0.34585482 -0.4339676
0.8658326 -0.20812161 -0.09847036 -0.38660324 -0.0027079042 0.7563781 0.92149156 0.036306538
-0.18609631 0.741824 -0.9039849 0.060086165 0.68400156 1.0608023 0.44587788 -0.59289235
-0.9097539 0.56038594 0.40289894 0.9892762 1.8350217 0.14553499 -1.1783035 -0.024630228
-1.0738741 0.30667466 0.46117207 1.0117921 -0.65047747 -0.7560076 0.49653152 -0.07661109
-1.0988425 1.4957478 -0.44160306 -0.95853716 -0.21892968 0.36602402 1.7589782 -0.4459973
1.4328736 0.626833 0.27511078 -0.24331778 0.8729579 -0.90288514 -0.11693402 0.52053434
-0.39095324 -0.4360254 0.47233188 1.0680147 0.20284286 0.6744734 1.8816688 -0.14642292
0.8749024 -0.3204262 1.3950924 -0.026467353 0.66334426 0.55042267 0.7361256 0.117884345
0.39501324 -1.2004429 -0.65150964 3.4094632 1.2439704 0.23292162 -0.9380465 -0.83556974
1.2478988 0.63233656 1.3242222 0.8121163 0.28171265 -0.09112547 0.7401626 -0.31544638
1.312253 -0.5498767 0.681369 0.5038194 -1.2559646 0.36512733 -0.3238023 1.1489376
-1.3896581 1.0221288 -0.10135229 -0.47044328 -1.8119094 -0.22305128 -0.47011462 -1.148504
-0.7577821 0.534299 -0.6505612 0.22104116 -1.0151279 -1.9984677 0.82053983 1.0522313
-0.6102285 0.2110356 -0.46410275 2.6117835 0.17646049 -0.0072685494 0.091743186 -0.48786935
-0.9185458 -1.1531749 -0.19244055 0.9104484 0.23219034 1.7010173 -0.5103734 0.83585346
-1.8350743 -2.727171 1.1392102 0.4937729 -0.48201853 -0.7504741 -1.4010323 0.580237
-0.81835186 -1.3279078 -0.61772144 -0.8328769 0.39513797 -0.45938125 -0.36084577 0.839974

fc1.weight f4 [64, 32]
00000000: a6bd 01be a1b7 a63d b1de e13b e2df 2a3e
00000010: 91de 4f3c 473c c73d 6595 47be ac63 153e
00000020: 149d 1bbe 421a c43c 1dad 87bd 6250 293e
00000030: d48a 8b3e 13a1 73bd 69d7 a9bd f7b5 3dbe
00000040: ccef 47be 961e 293e c359 cdbd afd4 1f3b
00000050: 50bf 51be a826 edbd 4e14 7a3e a10c 79be
00000060: 5517 753d e414 e9bd f6a5 e2bd ae93 e3be
00000070: 94b5 c53d 27a8 67bc b0f2 293b 832a ce3d
00000080: f1e1 2ebf c910 babe 9bb0 a53f 6263 ddbd
00000090: ab8b 11bf cce4 04bf 642d a83f b5fe 863f
000000a0: 5e80 903f bcfb 483e 1c4e da3e 4d1a 0ebf
000000b0: 45fa 013f 5852 f0be 888f 04c0 61f3 a7bc
000000c0: 1649 e03e 7408 a4bf bcef 8a3f 1dd4 25bf
000000d0: e6b8 7b40 dee5 043f 7098 643f 6838 233c
000000e0: ac3f cabf f21d abbf 8eab 75bf f582 3abf
000000f0: 2b8c 8d3f c25e 9cbe ea32 f63e 1577 3c3f
00000100: d5d4 4f3f 172b d83d d8da b5bf 5867 123f
00000110: 8cfa 393f f82d f93e c5a1 afbf e5f8 0240
00000120: 0b04 abbe 793d 2fbf 399e a4be 8e4f eebd
00000130: 72e3 69bf 5236 693f 46fd 43bf 7433 873f
00000140: 1a98 3bbf f2c2 e23f 9d11 7dbe cdcc b4bf
00000150: 3a67 873f d78d 2bbf d18f 4ebf 0cad 913f
00000160: dd08 333f 7f42 9c3e 3fd7 373f 36ff 533f
00000170: fae3 5fbf ecdb 2d3f 16e0 0bbf 634b 1ebf
00000180: 64e2 d2be 38b7 edbe 98e7 a03f 99aa 52be
00000190: d0b9 d3be d459 86be 40c9 9d3f 071b 563f
000001a0: f9ed 353f 41ed f33d 4aa8 973e bf97 18bf
000001b0: e119 183f 6582 bcbe cda0 e3bf b333 1dbd
000001c0: 2d92 cc3e 8442 55bf 7f09 793f 9872 0bbf
000001d0: 9e7c 7540 0a2f ec3e ba1f 283f 06c0 17be
000001e0: 47a8 a3bf 5c1e 92bf 5027 3dbf ac88 a4be
000001f0: 100a 6e3f 8575 d2be b167 af3e 2e6b 593f
00000200: c8f0 283f 4ffc eb3e 13a0 dcbe 7ee4 933e
00000210: 0167 3f3f 7228 a4bd 501a d1be 4e82 4d3f
00000220: 8077 a1bf 73f7 8f3e 0e88 09be d5cf 253f
00000230: c633 533c 60bd c93e 88eb 02bd c360 333f
00000240: 42eb 29bf a040 453f 0f17 01bf 8ef6 9cbf
00000250: 2318 3040 0d93 58be 2da7 52bf 0c4e a93e
00000260: 96d5 ec3e b0da e03e 3769 8d3e 02cc 363f
00000270: fc7d 60bf 370b 163e 871d 17be d337 40bf
00000280: deae 84be f73f 5cbd f41f 86bf 4575 68bf
00000290: 4e58 303f 2362 df3d 9eec 37bf 0d66 efbf
000002a0: 3999 e73e 0f2e 3bbf f6e7 b3be 79b2 d83d
000002b0: 665f 113e b03b 32bf c8b9 1abf 0cd8 86be
000002c0: 9365 86bf 8ebf ae3e b413 7ebf b3db f4bf
000002d0: acef c9bf b7af 97bd 1866 063f 8ae5 c33e
000002e0: 9f06 c9bd 3d75 7cbe 1f09 06be f01d 4fbe
000002f0: 64a2 edbe 3429 2dbf 75d7 d03c 641a 15bf
00000300: 86f0 a8be 0492 01bf d160 743f c9e6 9dbe
00000310: 61fb 0dbf 363e a5be 690d a03f 4f5a 353f
00000320: 50b8 503f 2cb4 a33e 4844 213f be86 f3be
00000330: 2329 fc3e 6c35 98be b6f9 f7bf 5404 62bd
00000340: 65dd c23e 1fec 52bf 5583 8e3f e8c9 f9be
00000350: cf0a 7740 bf13 203f c9d4 0a3f 19d1 6b3d
00000360: 9691 a0bf 85a3 90bf cce8 40bf f184 afbe
00000370: 6130 3f3f 4848 96be d392 e73e 3b3c 2c3f
00000380: d029 793c 91a9 573b 9848 233e 75d1 0abe
00000390: 7cae 13be 5197 61bd 1d42 96bd e365 12be
000003a0: 8b19 22be fdc3 bfbd cb18 003d 205a ec3d
000003b0: 9fca a13c 9400 9fbd 2ede 95bd 7272 ea3d
000003c0: 1547 f0bd f967 c53d 24f7 b7bd 417b d3bd
000003d0: 1d30 a23d 3756 ec3d 6cf6 383d b47c 32bc
000003e0: 1529 fc3c 9b8f df3d 66ce 803c add2 c1bd
000003f0: 3915 c9bd 4063 eb3d bcdc 3dbe cf30 a0bc
-0.12670001 0.08140493 0.006893002 0.16686967 0.012687341 0.09728294 -0.19490583 0.14588803
-0.1519664 0.023938302 -0.066248156 0.1653457 0.27254355 -0.059479784 -0.08293039 -0.18526445
-0.19525069 0.16515574 -0.10026886 0.0024388244 -0.20483136 -0.11579639 0.24421808 -0.24321224
0.059836704 -0.11380938 -0.11066811 -0.44448608 0.09653774 -0.014139212 0.0025932007 0.10066702
-0.6831351 -0.3634093 1.2944521 -0.108099714 -0.5685374 -0.51911616 1.3138852 1.054648
1.1289175 0.19627279 0.42637718 -0.5550888 0.50772506 -0.46937823 -2.0712605 -0.020501794
0.4380576 -1.281508 1.0854411 -0.64776784 3.9331603 0.5191325 0.892951 0.009962179
-1.5800681 -1.3368514 -0.95964897 -0.72856075 1.1058401 -0.30541044 0.4808572 0.73619205
0.8118413 0.10555094 -1.4207411 0.5718894 0.7264793 0.48667884 -1.3721243 2.0464413
-0.33401522 -0.68453175 -0.32151964 -0.116362676 -0.9136268 0.9109851 -0.7655834 1.0562577
-0.73278964 1.7715743 -0.2471375 -1.4125 1.0578377 -0.67013305 -0.80688196 1.1380935
0.699354 0.30519482 0.71812814 0.82811296 -0.8745724 0.679137 -0.54638803 -0.6183378
-0.41188347 -0.46428847 1.2570677 -0.2057289 -0.413527 -0.26240408 1.2327042 0.8363499
0.7106624 0.11910487 0.29620582 -0.59606546 0.5941449 -0.36818233 -1.7783448 -0.038379382
0.39955273 -0.8330462 0.97280115 -0.5447173 3.835731 0.46129638 0.6567341 -0.14819345
-1.2785729 -1.1415515 -0.7388811 -0.32135522 0.92984104 -0.41105285 0.34258798 0.8492917
0.65992403 0.46090934 -0.43090877 0.28885263 0.74766546 -0.08015527 -0.40840387 0.80276954
-1.2614594 0.28118476 -0.13430807 0.6477025 0.012890762 0.39402294 -0.0319629 0.7006952
-0.663746 0.77051735 -0.5042581 -1.2262743 2.7514732 -0.21149845 -0.8228634 0.33067358
0.46256703 0.43916845 0.27619335 0.7140504 -0.87692237 0.14652716 -0.14757358 -0.7508518
-0.25914663 -0.05377194 -1.0478501 -0.9080394 0.6888474 0.1090739 -0.71845424 -1.8703018
0.45234087 -0.73117155 -0.3513791 0.10580916 0.14196548 -0.69622326 -0.6043973 -0.26336706
-1.0499748 0.3413052 -0.99248815 -1.9129547 -1.5776267 -0.07406562 0.5249953 0.38261062
-0.09815716 -0.24654098 -0.13089417 -0.20226264 -0.46412957 -0.67640996 0.025493363 -0.58243394
-0.32996005 -0.5061343 0.9546023 -0.30840138 -0.554617 -0.32274026 1.2504092 0.70840925
0.8153124 0.31973398 0.62994814 -0.47563738 0.49250135 -0.29728258 -1.9373081 -0.05517991
0.38059536 -0.8239154 1.1133829 -0.48786855 3.8600347 0.6253013 0.54230934 0.057572458
-1.2544429 -1.1299902 -0.7535522 -0.34281114 0.74683195 -0.2935202 0.45229205 0.67279404
0.015207723 0.0032907466 0.15945661 -0.13556464 -0.1442203 -0.055075947 -0.07336829 -0.14296679
-0.15830056 -0.09363554 0.031273644 0.115406275 0.019749938 -0.07763782 -0.07317768 0.1144761
-0.11732308 0.09638972 -0.08982685 -0.10326243 0.07919333 0.11539882 0.04515688 -0.010893989
0.030781308 0.109160624 0.015723418 -0.09464011 -0.09818501 0.1149354 -0.18541235 -0.019554524

fc1.bias f4 [64]
00000000: 8843 9abe 1e9d 5c3e 3ae1 203e 8855 473e
00000010: 46c5 cbbe 425f 08bf e9df 513e 3ef7 41be
00000020: 1ffb 62be 7519 64bd 414e c0bd 04e9 12bf
00000030: f421 02bf 42e5 7abe fef6 43bf 8ab4 28be
00000040: 761a ccbe 9905 efbe 3f04 0abf 65c6 43be
00000050: e1ae 74be 2afe 8c3e 70ce 313e 6182 9bbe
00000060: 2baa 8cbe 8e30 b8be bb07 72be a37f 0dbf
00000070: f1d6 c4be f565 0fbf ae7d 833e fc46 2bbf
00000080: e5fa 223e e80c 703e ad46 26bf 7572 04bf
00000090: 991e 2dbf 6356 c3be ee6a 1ebf c181 cabd
000000a0: a975 20bf 8bd2 4dbf de30 07bf b4c2 a93e
000000b0: fcaf 503e eac9 97be 6b63 3cbe b140 94be
000000c0: dd0a debe cbf9 3abf 9c2f a7be 0ada 23bf
000000d0: 76d6 683e fa9c b0be a545 423c 5668 c5be
000000e0: 6635 663e 0133 1abe 478b 11bf afd7 cbbe
000000f0: aace 2ebe 0afd 4cbf 3375 50bf 3148 0bbf
-0.30129647 0.2154431 0.15710917 0.19466221 -0.39798945 -0.5327035 0.20495571 -0.18941972
-0.22166108 -0.05568834 -0.09389926 -0.57386804 -0.5083306 -0.24501517 -0.76548755 -0.1647512
-0.39863938 -0.46683958 -0.5391273 -0.1911865 -0.23894836 0.27537662 0.17363906 -0.3037291
-0.27473578 -0.35974544 -0.23635761 -0.55272883 -0.38445237 -0.5601495 0.25681823 -0.6690519
0.15916021 0.23442423 -0.6495159 -0.5173715 -0.67624813 -0.38151845 -0.6188191 -0.0988803
-0.62679535 -0.8039939 -0.5280894 0.3315636 0.20379633 -0.29646236 -0.183973 -0.28955606
-0.43367663 -0.73037404 -0.3265351 -0.64004576 0.2273806 -0.34494764 0.011857425 -0.38556165
0.22481307 -0.15058519 -0.56853145 -0.3981299 -0.17071024 -0.80073607 -0.8142883 -0.5440703

fc2.weight f4 [1, 64]
00000000: 33cf ba3d ff80 92bf c1d0 613f 2eed 23bf
00000010: 4ea3 6f3e 8c58 0d3e cf64 3bbf 8ce0 2c3d
00000020: 29e7 f9bc a7e0 ddbf 73c8 1b3f a744 073f
00000030: 4274 0f3f daa1 f7bd 5585 c6bd d860 183f
00000040: 9369 cd3e 0865 e63e 66d0 04bd 90b7 7b3c
00000050: c967 3a3c 6f77 503f c75b f33e 1c60 a13d
00000060: 5a14 55bc df9f c63b 675e 0a3d 8b51 363d
00000070: ff06 443c f3e7 18bc 2c51 4ebf 1ae3 123f
00000080: 8f56 4b3f 5c3b 593f b8e3 c4bd 3e38 c4bd
00000090: 3263 553e 2448 323e dd67 df3d 60ca a23e
000000a0: 7738 d63b 495f c2be d870 41be c54d 403f
000000b0: 72c3 29bf 99e1 833f 2d7f bf3e b370 c53d
000000c0: be49 1abe 97b8 a5bd 8923 d0bd 292f 21bd
000000d0: 9ad2 40bf 7606 653d 027d a93f 73a7 dd3e
000000e0: b629 073f 5c40 0abf 17f3 60be b9ad 4f3f
000000f0: c9af 5f3c 1764 a1be 938c 743f 61b3 a73d
0.09121551 -1.1445616 0.8820916 -0.6403378 0.2340214 0.13803309 -0.73200697 0.042206332
-0.030505734 -1.7334183 0.60852736 0.5283913 0.5603677 -0.120914176 -0.096934 0.5952277
0.4011961 0.44998956 -0.032425307 0.015363589 0.011377283 0.8143224 0.47530958 0.078796595
-0.0130053405 0.0060615386 0.033781435 0.04451136 0.011964559 -0.009332645 -0.8059261 0.5737778
0.7942895 0.848562 -0.096137464 -0.0958104 0.20838621 0.17410332 0.10908482 0.31795025
0.006537493 -0.37963322 -0.18890703 0.75118667 -0.6631385 1.0303222 0.37401715 0.09640636
-0.15067193 -0.08091848 -0.10163028 -0.039351616 -0.7532135 0.055914365 1.3241274 0.43291816
0.5279802 -0.54004455 -0.21967731 0.81124455 0.01365275 -0.31521675 0.95527 0.08188511
