baseline_model_BS_128.pth (torch, 651466 bytes, 4 tensors)

embedding.weight f4 [5002, 32]
000000 e2 97 5c bf 78 23 02 c0 c5 d1 1f be bf 9a 4d 3f
       -0.86169255 -2.0334148 -0.15607364 0.8031425
000010 ca c0 0d bf 3c 8d fa bf e5 a1 63 3f 79 68 83 3f
       -0.553723 -1.9574351 0.88918906 1.0266258
000020 57 02 d5 bf 39 7f aa 3f 02 79 31 bf 70 09 19 bf
       -1.6641339 1.3320075 -0.6932527 -0.59780025
000030 03 69 13 3f aa ab 2c 3f 22 f1 46 bf 10 75 1d bf
       0.5758211 0.6744944 -0.7771169 -0.6150675
000040 67 86 0a 3f af 3e d9 3d 3d 36 a8 be 4d ae de be
       0.5411133 0.10607659 -0.3285388 -0.43492356
000050 7c 4c 25 bf 37 0e e9 be 2b 88 08 bf ec 8a bc 3d
       -0.6456983 -0.45518658 -0.53332776 0.09206185
000060 1f 04 97 3f 37 9e 35 bf 22 29 f0 bf e0 13 05 3f
       1.1798133 -0.7094454 -1.8762553 0.5198345
000070 9b 2b ba 3f 5d 5a d2 3d f9 65 46 bf 9e 09 dc 3d
       1.4544557 0.10271142 -0.7749935 0.10744022
000080 2e 58 59 bf 27 6b 5f bf a8 ec 7d bf 3a 7b eb be
       -0.84900177 -0.87272877 -0.99189234 -0.45992452
000090 92 22 ea 3e ec af c7 3e e8 15 de bd e8 26 10 3e
       0.457295 0.39001405 -0.10844022 0.14077342
0000a0 b3 92 9a bd 6c e0 1a c0 2e 73 26 3f fa f1 95 bf
       -0.07547512 -2.4199476 0.650195 -1.171447
0000b0 36 1f 55 bf b2 bb 28 3e f1 61 dc 3e 76 8f 7d 3f
       -0.8325075 0.1647785 0.43043473 0.9904703
0000c0 da 0a 54 3f 06 87 16 bf ea 20 7d bf 16 ad da 3e
       0.8282906 -0.5879978 -0.9887835 0.4271018
0000d0 e9 a2 1b 3f c3 3d 8e bf f6 81 0c 40 ea f5 43 bf
       0.60795456 -1.1112598 2.1954322 -0.7654711
0000e0 6c 8d 27 3d c8 cf 92 bf 1e c3 12 3e 9f 5f 91 bf
       0.040906355 -1.146966 0.14332244 -1.1357306
0000f0 f8 ea 61 be 72 36 b5 be 45 c7 ab bf 2c 49 22 3f
       -0.2206229 -0.353931 -1.3420187 0.633929
000100 6d 7a 5d 3f b4 8e bb 3f f5 a7 09 3d 5f 57 08 40
       0.8651493 1.4652925 0.033607442 2.1303327
000110 0b 3b 51 3f f8 4e 5c bf 9f 0b 0d 40 03 ca 32 bf
       0.8173072 -0.86057997 2.2038343 -0.69839495
000120 55 f4 31 3e 51 49 c5 3f 1b 94 4d 3e 33 9b 92 3f
       0.17378362 1.5412999 0.20076029 1.1453613
000130 ab e4 c8 be 45 60 a4 be 7d 0b 29 3f d7 7d 49 bf
       -0.3923696 -0.32104698 0.66033155 -0.7870764
000140 dd 8a e8 3e d9 52 45 3e eb c7 8c 3e 96 a9 d9 bf
       0.45418444 0.19269885 0.27496275 -1.7004879
000150 96 1d a5 bf a0 1f 5c bf fa 5a ae ba db ab 83 bf
       -1.2899654 -0.85985756 -0.001330226 -1.0286821
000160 3a 86 8d be d7 b4 ab 3e 58 15 dd 3e 00 08 23 3f
       -0.2764147 0.33536407 0.43180346 0.6368408
000170 09 5d ab bd 0a c0 b5 3f 50 89 5d be 9d ba ea 3e
       -0.083673544 1.4199231 -0.21634412 0.458455
000180 1d 60 90 3f 39 c0 82 3f bd 93 a9 3f 0d 79 20 3f
       1.1279331 1.0214912 1.3248211 0.6268471
000190 f4 03 22 3f 14 95 78 3e 38 3c b5 3d a4 cd 69 bf
       0.6328728 0.24275619 0.088493764 -0.9132941
0001a0 34 bd 38 40 4e ab b3 3d 45 4a 85 bf de 24 86 3f
       2.886548 0.08772908 -1.041329 1.0480001
0001b0 32 74 39 3f b2 02 7b 3f 09 a6 b2 3e 69 42 4b be
       0.72442925 0.9805099 0.348923 -0.19849552
0001c0 1a d5 8f bf a4 b8 c0 3f 6b 18 f1 3e 86 0b be 3f
       -1.1236908 1.5056348 0.47088942 1.4847267
0001d0 b9 68 f6 3e 67 83 4a 3f cc c8 0d bf e5 91 d0 bf
       0.48126772 0.79106754 -0.55384517 -1.6294523
0001e0 c6 34 60 be fd cf 2b bf d8 b3 6e 3f 31 2c 4c 3f
       -0.21895131 -0.6711424 0.9324317 0.7975493
0001f0 24 83 95 bd df e9 51 3f 69 38 9e 3f f3 76 21 c0
       -0.07300404 0.81997484 1.2360965 -2.522885
000200 ca db ed 3f a5 e1 5d be 88 79 8c 3e 99 37 3b 3e
       1.8582699 -0.21668108 0.2743647 0.18282928
000210 f9 e1 96 bf 03 de 0e 3c 67 6d 59 3e 23 fa 05 bf
       -1.1787711 0.008719924 0.2123314 -0.52334803
000220 c0 02 90 3e e1 eb 66 3f ec b9 90 be 75 6d 1a 3f
       0.28127098 0.9020367 -0.28266847 0.6032327
000230 69 48 1c 3d fa 61 0e bf 70 0b 99 3f 78 57 fc 3f
       0.038154993 -0.5561825 1.1956615 1.9714193
000240 ed ca 9c bf 61 3d ed bf 41 b4 55 3f c0 10 01 3e
       -1.2249428 -1.8534356 0.8347817 0.12604046
000250 a7 dc fc 3e d7 da 70 bf aa dd a6 3f 6c 59 be 3f
       0.49387094 -0.94083923 1.3036397 1.4871039
000260 18 f1 80 be a1 6e fb be 33 a0 2b be 66 41 30 bd
       -0.2518394 -0.4910784 -0.1676033 -0.04303112
000270 65 19 ca bf 0d 1b a3 bd 46 51 66 bf e2 68 4a 3f
       -1.5789 -0.07964144 -0.89967763 0.7906629
000280 54 6f cf 3e 04 7b 14 3e 1d 71 54 be fa e9 74 3f
       0.40514624 0.14500052 -0.20746274 0.9566952
000290 ce 25 88 3f 61 b6 6e bf e9 09 21 bf ec b1 ef bf
       1.0636537 -0.9324704 -0.62905747 -1.8726172
0002a0 23 89 da bf dd ac 9a 3f f5 3f 75 3e 58 be 50 be
       -1.7073101 1.2084004 0.23950179 -0.2038511
0002b0 52 fd 9c be 1b 42 0e 3f c4 83 9b 3f 22 a1 93 3d
       -0.30662018 0.5556962 1.2149587 0.07208468
0002c0 5f 46 26 3e 96 fa 29 bf b1 6b 6d bf d1 cd 8b bf
       0.16237782 -0.6639799 -0.9274245 -1.0922185
0002d0 3c 91 d0 3f df a6 fb 3f 1b 05 d0 bf f0 4d ea bf
       1.6294322 1.96603 -1.6251558 -1.8305035
0002e0 ba a6 05 c0 7c 72 1e bf df 17 a9 be 0b fb bc 3f
       -2.0883012 -0.6189344 -0.33026025 1.4764112
0002f0 9d 77 a7 be 4d 23 7f be 24 3c 0a c0 33 67 88 bf
       -0.32708445 -0.2491581 -2.1599207 -1.0656494
000300 51 6f 4e 40 46 e6 77 bf 11 b3 41 bf 83 9c 30 bf
       3.2255442 -0.96835744 -0.7566386 -0.6898882
000310 33 e7 ed bf a5 33 f3 3e 03 69 ae 3e 1c 61 d1 3d
       -1.8586181 0.4750034 0.34064493 0.102236
000320 33 c0 da 3f 94 4c 8c be c2 bf 68 3f e4 9d 0b bf
       1.7089905 -0.27402174 0.909176 -0.54537797
000330 e4 11 cb 3f ed 06 c2 3e 31 36 67 be ac c2 08 3d
       1.5864835 0.3789591 -0.22579266 0.03338878
000340 b6 ed 97 3f ed 58 4e bf 75 17 ba be c6 e5 b0 bf
       1.1869419 -0.8060444 -0.3634602 -1.3820121
000350 2d 51 86 3f 04 79 34 3e 8f c4 0d bf c6 16 c1 3e
       1.0493523 0.17624289 -0.5537805 0.37712687
000360 b9 21 9c 3d a0 b8 4d 3f 4f c9 a9 3f 12 8f 5f bf
       0.076236196 0.8035984 1.326456 -0.8732768
000370 48 a0 0e 3d c2 55 37 3f d8 a2 7e bf 8e d0 5d bf
       0.034820825 0.7161523 -0.9946723 -0.86646354
000380 d9 51 71 bf 1e 35 24 3f 12 6d ec 3e 04 82 39 bf
       -0.94265515 0.6414355 0.46176964 -0.72464013
000390 27 c2 b9 bf 2d b3 8f bd a3 5a c8 3f 30 2f 62 3f
       -1.4512376 -0.07016597 1.565266 0.8835325
0003a0 60 fd 9f bf b8 86 03 3e b2 8e 25 3f b9 89 f7 bf
       -1.2499199 0.1284436 0.6467086 -1.9338905
0003b0 61 27 0b 3f b9 a8 fd be d2 27 45 3f 14 27 62 be
       0.5435696 -0.49542788 0.77013886 -0.2208522
0003c0 e2 b6 95 be 04 7d 7f 3e 50 c0 dc 3e 97 91 0a 3f
       -0.2924109 0.24950033 0.43115473 0.541284
0003d0 4f 15 2b bf 9a a4 9d 3f 5c 0e 9f 3f 26 81 b1 bf
       -0.6682939 1.2315857 1.2426257 -1.3867538
0003e0 2b 0f 7e 3c 8a 7b 56 3f 8c de ab 3e d7 31 f9 3e
       0.015506546 0.83782256 0.33568227 0.48670837
0003f0 63 04 85 3f 5d a3 2a bf 21 a0 c4 3f 54 c3 61 bf
       1.0391964 -0.6665552 1.5361367 -0.8818867

fc1.weight f4 [64, 32]
000000 39 aa 58 be 9e 4c e7 3d b3 4a bc bd b3 8a 1d 3d
       -0.21158685 0.112939104 -0.09193935 0.038462352
000010 32 d7 2a 3d fd 92 26 3e 4f 36 d3 bd b4 9f 3b 3d
       0.041709132 0.16267009 -0.10313093 0.0458066
000020 9a 86 36 3d 25 69 d8 bd 7d e8 eb bb 19 fb 6d 3e
       0.04456196 -0.1056693 -0.0071993456 0.23240317
000030 02 7f 71 be ad fe 0e bd c5 e4 21 be f9 ac 18 3e
       -0.23583606 -0.034910847 -0.15809925 0.14909734
000040 ed 28 da bd 9e 19 90 bd 8f 2a 8f bd 07 2a 6c 3e
       -0.10652337 -0.07036136 -0.06990539 0.23062907
000050 b4 5a a5 bd f3 38 07 3e 69 4e 2c be de 0d 2e 3e
       -0.08073941 0.13205318 -0.16826786 0.16997477
000060 b0 dd 0e bc 41 04 98 3d d9 53 28 bd 99 4c 39 be
       -0.008719847 0.07422686 -0.04109559 -0.18095626
000070 ff 66 a0 bc 8f 69 91 3b f4 6a 5f 3e 57 8c 77 bd
       -0.019580362 0.0044376324 0.21818143 -0.060436573
000080 ab 40 ae be e0 39 44 3e 21 82 a1 3e c5 82 2a bb
       -0.34033713 0.19162703 0.31544593 -0.0026017886
000090 e8 ac 15 bf 04 c0 0e 3e 2e 44 b2 be 15 ca 9e 3e
       -0.5846696 0.13940436 -0.34817642 0.3101355
0000a0 5f a5 1b 3e 8f f5 c9 bb 39 23 85 be 0d 22 aa 3d
       0.15199803 -0.006163306 -0.26003435 0.08307276
0000b0 1b 33 a4 3e 5e ee 02 3f 5c d7 f4 3e 29 eb 24 3e
       0.3207024 0.5114497 0.47820556 0.16105331
0000c0 7d 22 a7 3e b5 e2 78 3e 78 25 c2 be 5d 07 95 be
       0.326435 0.24305232 -0.3791921 -0.2910718
0000d0 3b 8c c8 be de d7 16 bc f0 d0 53 3e fb bb d6 bd
       -0.39169487 -0.00920674 0.20685172 -0.10485073
0000e0 9b d9 f8 be bc b8 aa be c0 2d a7 bd bc 49 19 3e
       -0.4860352 -0.33344066 -0.08163023 0.14969534
0000f0 41 8a b9 3e 98 64 aa be 5d 18 79 3e a6 86 8d 3e
       0.36238292 -0.33279872 0.243257 0.2764179
000100 c4 a7 41 3e bc 75 6e bc 63 1a bb be b9 34 b5 3e
       0.18911654 -0.014554437 -0.3654357 0.35391787
000110 a7 eb ee 3e 81 c9 b4 be ed 1a 85 3e a2 bf d2 be
       0.46664163 -0.35309985 0.25997105 -0.4116183
000120 60 f6 1e bf 84 b7 ea bc e3 44 09 3f 81 54 52 be
       -0.6209469 -0.02865196 0.5362074 -0.20540048
000130 36 d6 36 bf fc 2d 3f bf 81 c9 b1 bd 80 0c 8f bd
       -0.7142061 -0.7467954 -0.08681012 -0.06984806
000140 6c 29 08 bf ce c0 9f be 06 59 a0 3e 1e b3 8f 3e
       -0.53188205 -0.31201786 0.3131792 0.28066343
000150 f8 12 9b 3e c8 0c 64 3d 54 42 aa 3c 9b 77 07 3f
       0.3028791 0.05567625 0.02078358 0.5291688
000160 01 e0 d6 3e 53 85 74 3d b3 74 95 3e 2e d1 fa bd
       0.41967776 0.05969746 0.29190597 -0.12246929
000170 92 c0 12 3e f1 5e 04 3f a6 b2 34 be 4a a1 08 bf
       0.14331272 0.5170737 -0.17646274 -0.5337111
000180 f9 4c 0c be 7a db ca bd f6 da 57 3e e2 0c 87 bc
       -0.13701238 -0.09905143 0.2107962 -0.016485635
000190 ae 6d 1a bf 72 95 d3 3e 0f 87 2c be b5 d3 bb 3e
       -0.6032361 0.41324955 -0.16848396 0.36684957
0001a0 ec fc c2 3e e8 34 b4 bd 1a 32 14 bf c4 f0 da 3d
       0.3808359 -0.087991536 -0.5788895 0.10690454
0001b0 11 5b d5 3e f4 49 15 3f 5f f5 4b 3e 10 88 bd 3e
       0.4167104 0.5831597 0.1991782 0.3701787
0001c0 c6 29 ae 3e bc 40 a3 3e 2d 19 d7 be 9f 53 d3 be
       0.34016246 0.31885326 -0.42011395 -0.41274735
0001d0 78 5e 08 bf 14 86 15 be 21 f4 47 bd dc ca b2 be
       -0.5326915 -0.14601928 -0.048816804 -0.34920394
0001e0 d7 da 0f bf ac 6d 93 be 3b 1f 08 bf be 4e 94 3d
       -0.561933 -0.2879461 -0.53172654 0.072415814
0001f0 ff 34 77 3e 8c 3c da be 63 6f 34 3e 71 e8 1d 3f
       0.2414131 -0.4262432 0.17620616 0.616828
000200 7a 3c 63 3e b9 dc 36 bd ff f8 33 bf 3d 8d c8 3e
       0.22191039 -0.04464409 -0.7030181 0.39170256
000210 19 cb e8 3e a0 fc 13 be 23 e0 d7 3e 24 45 da be
       0.4546745 -0.14451838 0.4216319 -0.42630875
000220 e7 16 d8 be 1e 67 13 3e 05 75 8f 3e c6 9c ad be
       -0.42204973 0.14394805 0.28018966 -0.3390867
000230 64 6d fb be 76 82 4b bf c0 f4 07 be 28 10 ad bc
       -0.49106896 -0.7949594 -0.13276958 -0.021125868
000240 06 a5 08 bf 80 9b 0c bf 11 d1 4d 3f 8b 3f ec 3e
       -0.53376806 -0.54924774 0.80397135 0.4614223
000250 b0 79 c9 3e a7 9f 49 3e bb 7c ae 3d e2 a0 94 3e
       0.39350653 0.19689809 0.08519884 0.29028994
000260 d9 4b 01 3f 1b 0e 83 3e f3 e7 0b 3e 2a 90 da be
       0.5050636 0.255967 0.136627 -0.42688113
000270 26 6c a2 3d 5c f0 6b 3e 2f 6f 8b be cb d3 09 bf
       0.07930784 0.23040909 -0.27233264 -0.53838795
000280 2c 39 ef bd ba 82 ca bc 77 2f c0 3e 1a 42 b0 be
       -0.116808265 -0.024720538 0.37536213 -0.3442543
000290 ee fd ff be 74 ec 28 3e 6f ec 44 be f3 b3 7c 3e
       -0.4999842 0.1649645 -0.19230817 0.2467802
0002a0 d1 0f c5 3e 76 f5 97 bd 84 9d 0f bf bc 56 3a 3e
       0.3848863 -0.07419865 -0.56099725 0.18197149
0002b0 02 90 dc 3e 70 b0 29 3f 46 b3 c8 3e 50 1d b8 3e
       0.4307862 0.6628485 0.39199275 0.35959864
0002c0 31 09 aa 3e 7f a1 b6 3e 94 22 90 be 03 2b fb be
       0.33210137 0.35670087 -0.2815138 -0.49056253
0002d0 1a 64 c0 be 1d 0d 91 be 07 c0 e5 3d 43 c7 81 be
       -0.3757637 -0.28330317 0.11218267 -0.25347337
0002e0 62 0a 23 bf cb f4 09 bd c5 46 0a bf 8e 78 1c 3e
       -0.6368772 -0.03368072 -0.54014236 0.15280363
0002f0 28 15 1b 3e 19 1b bb be 2f 94 ca 3d 71 d0 21 3f
       0.15144789 -0.3654411 0.09891545 0.6320868
000300 2b 7b a8 bd 1c c5 0c 3d 6d 2f d9 3e ee a6 ab bc
       -0.082266174 0.034367666 0.42418995 -0.020953622
000310 ee 6f 15 be 16 03 76 3e a7 7a c8 3d d8 06 7e bd
       -0.14593479 0.24024615 0.09789019 -0.062018245
000320 7f 18 94 3e 6e 0e a2 3d b8 11 85 3d a7 e9 e7 3d
       0.2892494 0.079129085 0.0649752 0.113238625
000330 dd 79 9d 3e 02 0d 7f 3e b7 41 42 be 10 cd a0 bd
       0.30757037 0.24907306 -0.1897038 -0.078516126
000340 72 c2 9f 3d e3 d0 20 3e 3f e9 85 3c 4a e4 89 3e
       0.078007594 0.15704684 0.016346572 0.26931983
000350 05 d3 2d bd ec 53 9a 3e 9f b7 75 be 70 18 b6 3d
       -0.042437572 0.30142152 -0.23995827 0.0889138
000360 e4 5e 34 be 22 e7 93 3e f3 17 d9 3d 0b ee 9e 3e
       -0.17614323 0.28887278 0.10600271 0.31040987
000370 17 e9 f4 bd 63 e4 95 3d 8f c7 5f bd 79 aa 22 3e
       -0.11958521 0.07318952 -0.054633673 0.15885343
000380 33 c3 0d be b3 26 3a 3d 08 6a 01 3e 6a 0d 5d be
       -0.13843994 0.045447063 0.12638104 -0.21587148
000390 9d b3 6a bd a9 87 9a bd 1d a4 66 be 55 3a c6 3d
       -0.0573002 -0.07545406 -0.22523542 0.09679095
0003a0 b1 3d 52 3d fd 63 c5 3d cb 9a 72 be 25 ad 72 bd
       0.051328365 0.09638212 -0.23691861 -0.059247155
0003b0 ba b2 fb 3d 46 c4 56 bc 73 85 18 3e 73 ee 02 3e
       0.12289949 -0.013108319 0.14894657 0.12786274
0003c0 3e 30 48 3d f8 2a a1 3e f7 43 0d be ff 80 eb bd
       0.048874132 0.31478095 -0.13795458 -0.114992134
0003d0 6a dc 12 be 37 4d 14 3e c7 28 4f 3c bc 11 e6 bc
       -0.14341894 0.1448258 0.012643999 -0.028084628
0003e0 8b 3b d3 be 1d 8b 48 be 01 11 86 3d 76 a4 b2 3d
       -0.41256365 -0.19584318 0.06546212 0.08722775
0003f0 56 90 1a 3e 71 ce 76 bc 6e 90 b9 3c 1d 14 a0 3d
       0.15094122 -0.015063868 0.022651877 0.07816336

fc1.bias f4 [64]
000000 ae 90 0f be a9 6f 0b 3e c9 09 aa 3d ca cf 96 3d
       -0.14020035 0.13616814 0.083026476 0.07363851
000010 08 78 8b 3d c0 e5 9d 3d 43 74 5c 3d 15 99 fd 3c
       0.068100035 0.07709837 0.053821813 0.030956784
000020 ef c5 a5 be 31 4d 46 be 75 fc 4d 3d 6a 69 be bc
       -0.32377574 -0.19365384 0.05028959 -0.023243625
000030 77 52 3a 3d fc a1 8a be a1 74 37 be ca 97 85 bd
       0.0454888 -0.2707671 -0.17915584 -0.06523092
000040 3e bd 28 3d d0 6c 74 be de 14 53 be d6 56 d1 3c
       0.0411961 -0.23869634 -0.20613429 0.025554102
000050 d3 71 20 be 02 cb 70 be da 91 89 3c 05 1b 3a be
       -0.1566842 -0.23514941 0.01679318 -0.1817437
000060 d7 ca f2 3d dd 72 d5 3d d1 55 92 3d 31 d7 f3 bd
       0.11855095 0.10422299 0.071452744 -0.11906279
000070 b1 18 70 be 91 3e 8f 3d cb 3d a3 3d e2 42 02 3e
       -0.23446919 0.069943555 0.079707704 0.12720826
000080 df 8c 95 3d 19 c7 0e 3e 8a 14 3a be 61 55 1c be
       0.0730226 0.13943137 -0.18171898 -0.15266944
000090 83 02 9c 3d 16 71 02 3e 27 71 cf bd 32 d0 5b bd
       0.076176666 0.12738451 -0.10129004 -0.053665347
0000a0 96 19 a2 3d 6d f6 ca bc 3b 21 1a be 5f 26 fe 3d
       0.079150364 -0.024775708 -0.15051739 0.124096625
0000b0 9f 94 c6 3d 2c 87 82 be 1c 94 c0 bd 44 6f 60 3d
       0.09696316 -0.25493753 -0.094032496 0.05479361
0000c0 f8 43 10 be d7 38 21 3c e2 bf e6 3d 31 66 c4 3c
       -0.14088428 0.009840212 0.112670675 0.02397451
0000d0 4b 6c 3d 3d b6 e4 c2 3d 1f 4d cf 3d c3 f3 a2 3d
       0.046245854 0.095162794 0.101221316 0.0795665
0000e0 cd 7c d9 bd cd e3 82 be 1d 1f d2 bc 51 3d 4a 3e
       -0.10619507 -0.25564423 -0.025649602 0.19749953
0000f0 e2 69 b5 3d 8c bd 1c be 2b 5c 88 3d e0 6f 3a bd
       0.08858086 -0.15306681 0.06658205 -0.04551685

fc2.weight f4 [1, 64]
000000 96 9a f5 3c df c1 a1 be 89 5f cc 3e 9f ac 13 bf
       0.029980939 -0.31593224 0.39916638 -0.57685274
000010 df ee cc 3e d2 f0 d8 be 49 b4 eb 3d 7c ed 50 3c
       0.40025994 -0.4237123 0.11508996 0.012751933
000020 56 70 68 bd 8f 36 12 be ee d7 12 bf 3c 57 f5 bd
       -0.056747757 -0.14278625 -0.5736073 -0.11979529
000030 73 3a e5 3d ef 6b 86 3d d5 5f 83 3e ab 9c d4 ba
       0.11192789 0.065635554 0.25659052 -0.0016221007
000040 6f 15 05 bf cf 18 0d bd 80 13 4c 3d 7a 45 19 3f
       -0.5198583 -0.034447487 0.049823284 0.5987164
000050 bd f4 b0 bc e7 02 12 3d 25 78 d8 3e 2d 5f 09 3c
       -0.021601075 0.0356473 0.42279163 0.008384508
000060 c0 39 07 bf 2e ed 25 3e d7 bc 01 be 67 16 1d bd
       -0.52822495 0.16203758 -0.12669693 -0.038351443
000070 c2 a8 3e 3d 05 53 51 3e d5 59 19 bf 51 b8 a5 3e
       0.04654766 0.20441826 -0.599027 0.32367185
000080 01 1d c9 3e 61 27 19 bf ef b7 4d bc ac 62 7c 3e
       0.3927994 -0.5982571 -0.01255606 0.24647015
000090 09 e8 17 3f 9c 69 01 bf b8 eb 74 bc 21 1e 29 3f
       0.5933843 -0.5055177 -0.014948778 0.660616
0000a0 26 7f db 3e 94 b1 14 3e bf 45 c8 3b 43 cf 2d 3f
       0.42870444 0.14520866 0.00611183 0.6789438
0000b0 64 79 35 bf 78 4f cc 3c 5c f3 61 bc e0 9b 37 bf
       -0.7088835 0.024940237 -0.013790932 -0.7172222
0000c0 d9 ca d0 3e 3d 2d e1 3c aa ff 07 3f 39 3f cd be
       0.4077976 0.027487392 0.5312449 -0.40087298
0000d0 cd 08 0d bf e5 1a bc be 11 af a1 be 8c 70 10 3f
       -0.55091554 -0.3673927 -0.31578878 0.5642173
0000e0 40 1d 06 3c 61 00 23 bd a4 e0 37 3f 7f a8 2f bf
       0.008185685 -0.039795283 0.7182715 -0.6861648
0000f0 5f 42 0a 3f c2 a0 e7 bb 7b d2 1e 3f ad a8 2f 3f
       0.54007524 -0.0070687244 0.6203992 0.68616754
