baseline_model_BS_64.pth (torch, 651457 bytes, 4 tensors)

embedding.weight f4 [5002, 32]
000000 5e e5 97 bd c5 96 cc be 45 a5 0a be 98 64 25 3f
       -0.07416795 -0.39958778 -0.13539608 0.6460662
000010 58 cd 9f bf 1f 8f 17 3f d2 18 7c 3f 53 9a d8 bf
       -1.2484541 0.5920276 0.9847537 -1.6922096
000020 25 07 cf bc a4 50 23 bf 26 37 66 bf 1f f8 36 3f
       -0.025271961 -0.6379492 -0.899279 0.7147235
000030 40 f8 04 bf cd f5 74 be 24 c1 ec 3d 99 79 19 bf
       -0.519413 -0.2392189 0.11560276 -0.5995117
000040 ac ba 9a be b5 6f 9d 3f e3 5b 83 3f 1a b8 0e bf
       -0.30220544 1.2299715 1.0262417 -0.55749667
000050 3f 57 f4 be 2a 78 5c 3f 98 c8 f2 3f 4a d7 67 3f
       -0.47722813 0.86120856 1.8967466 0.9056288
000060 15 e1 54 bf cf c3 b1 bd 11 e4 d3 be f0 dd 25 3e
       -0.8315595 -0.08679926 -0.41384938 0.16197944
000070 76 12 71 be 59 49 92 3f a9 b0 b3 3f 79 2c 08 c0
       -0.23542199 1.1428634 1.4038287 -2.1277144
000080 b6 dc 0d 3f 71 91 08 bf ab 49 16 bf 29 84 ca be
       0.55414903 -0.53346926 -0.5870616 -0.39553955
000090 b7 0e 06 bb d1 ee 8f bf ee 66 b0 3e 87 ec e9 bf
       -0.0020455548 -1.1244756 0.3445353 -1.8275307
0000a0 70 8e 03 3d b1 5e be be 8a 57 73 be ae 43 32 bf
       0.03211826 -0.3718162 -0.23763862 -0.6963452
0000b0 e1 ce 94 3f 53 9b 2c 3e fc 4f 13 be b5 45 38 bf
       1.1625634 0.16856126 -0.1438598 -0.71981364
0000c0 07 1c 80 be fe 03 58 3e 6d e2 11 3e 69 d4 31 3f
       -0.25021383 0.21095273 0.14246531 0.6946474
0000d0 42 e4 a2 3e a5 ba 9b 3f 4b f8 d6 bf 66 6b 24 3f
       0.31814772 1.2166334 -1.6794523 0.64226377
0000e0 aa 2d 87 3e 8e e8 ba 3e 44 11 72 3d 63 87 a5 be
       0.26402026 0.3650555 0.059098497 -0.32329854
0000f0 0a 53 c5 3e 3b 0d 6e 3f 05 b9 3f bf 12 53 9a bd
       0.38539916 0.9298894 -0.7489169 -0.07535376
000100 ec 08 71 bf db f2 f8 bd 83 3f 19 bf 51 48 2d be
       -0.9415424 -0.12155696 -0.59862536 -0.16922118
000110 1c ca b0 3f e5 c3 40 bf cd 08 9c bf 41 8a c8 3f
       1.3811679 -0.7529891 -1.2190186 1.5667192
000120 1a fc 98 bf 9e 83 e2 3e 5a 83 f3 3e e1 63 db bf
       -1.1951935 0.4424104 0.4756115 -1.7139856
000130 59 0f d3 3f 21 90 81 3e 38 db 51 3f d1 e6 29 3f
       1.6489059 0.25305274 0.81975126 0.6636782
000140 d2 ee da 3d 4c e1 a1 be 8a e4 a3 3f 8e a0 01 3d
       0.106900826 -0.316172 1.280412 0.031647258
000150 22 cb 7c 3f 70 c3 56 3e 6d 7d ee be fb 2f 9e bf
       0.98747456 0.20972991 -0.46580067 -1.2358392
000160 25 9d 1a 3f e8 14 a9 be 93 df 2f 3f 69 81 01 c0
       0.60396034 -0.33023763 0.6870052 -2.0235236
000170 c5 2a cb 3e 2a fe 8d bd d7 b2 e9 be 2c 45 2f 3f
       0.39681068 -0.069332436 -0.45644256 0.6846492
000180 e6 a2 cc 3e d7 c6 49 3f 3b b0 a2 3f 7e 2a fc 3f
       0.39968032 0.7881903 1.2710031 1.9700468
000190 85 6c b0 bd 47 2d 94 3f ae 17 d2 bf d5 99 10 be
       -0.086144485 1.1576318 -1.6413476 -0.14121182
0001a0 2d f4 9e 3f 4f b8 e1 bf 5b 7d c9 3d 06 c5 ba be
       1.2418267 -1.7634372 0.09838363 -0.36478442
0001b0 7b a6 37 be 11 f2 36 bf 68 c8 52 3f 35 00 0f bf
       -0.17934601 -0.71463114 0.82337046 -0.5585969
0001c0 09 ea 1a bf d8 69 e9 3c ba 55 4a bf 8a c0 13 3f
       -0.6051336 0.028492853 -0.7903706 0.57715666
0001d0 c1 76 93 bf 39 a5 44 be 03 b4 71 bf a9 74 2b bf
       -1.1520616 -0.19203652 -0.944153 -0.66974884
0001e0 b9 7f 93 bf 4d 30 1a 3f 61 f3 cf 3e c2 05 03 3f
       -1.1523353 0.6022995 0.4061537 0.5118066
0001f0 e7 24 3d 3f 79 3c fe be 71 c7 eb be 77 50 09 3f
       0.73884434 -0.49655512 -0.460506 0.53638405
000200 01 ed 9c bf 27 58 a2 3f d2 cc d2 be 60 81 12 3f
       -1.2259828 1.2683152 -0.4117189 0.5722866
000210 43 97 39 3e bf 22 18 40 df 45 e7 3f 6f 24 3c 3f
       0.18124108 2.3771207 1.8068198 0.73493093
000220 c5 47 d3 bf a1 f1 27 3f ef 4c 18 3f 5b 26 8b bf
       -1.6506277 0.6560307 0.5949239 -1.087108
000230 cb 11 32 bf 77 1e f4 3e a6 4b bf bf 03 c6 40 bf
       -0.695584 0.47679493 -1.4944961 -0.7530214
000240 6b aa 3b 3f 2b 92 58 bf 53 69 bd bf 13 41 1b be
       0.7330691 -0.84598035 -1.4797767 -0.15161543
000250 44 53 69 3f 9b 92 42 bf 0f 4a ba 3f 8c fc 78 bd
       0.9114268 -0.7600495 1.4553851 -0.060787722
000260 8a cb 41 bf 66 88 99 bd 34 5c a2 bf 3d 0e 06 40
       -0.757012 -0.07496719 -1.2684388 2.094619
000270 df 9b b1 3d b3 54 6c 3d 33 1b 74 3f 35 78 d3 3e
       0.08672308 0.057697963 0.95354 0.41302648
000280 95 b4 88 3f 43 f6 b8 3e 45 4c 04 be ad 4a ac 3f
       1.0680109 0.36125383 -0.1291972 1.3460289
000290 7e 27 42 3f 75 73 da 3d 62 fe 5b bf 91 be 5a bd
       0.7584151 0.10666553 -0.8593503 -0.053404395
0002a0 a2 6d 4e be 00 66 61 3f 5e 8d 92 3f d5 5b 71 3f
       -0.20159009 0.88046265 1.1449392 0.9428075
0002b0 a5 34 b7 bf 8b dd e1 3e 9d 5f fd 3f 8a 46 0e 40
       -1.4312941 0.44114336 1.9794804 2.2230554
0002c0 9c ea e6 be e8 8d 7f 3f 63 a8 58 3f 3b 2a 72 3e
       -0.45100868 0.99825907 0.8463194 0.23648922
0002d0 98 b4 80 bf e2 33 99 3f 70 f0 cf be aa 5f 88 3f
       -1.0055113 1.1968958 -0.40613127 1.0654194
0002e0 bd 39 c7 3e 63 98 f9 3f b4 a5 91 bf e9 e2 21 bf
       0.38911238 1.949963 -1.1378694 -0.6323686
0002f0 32 5d 17 bf 3c ef 0a 3e f7 88 07 3f c1 72 1b c0
       -0.5912658 0.13567823 0.52943367 -2.428879
000300 0b fb a9 bf 83 52 16 bd 4a 7e 52 3d 24 24 87 bf
       -1.3279737 -0.036699783 0.05138997 -1.0557904
000310 55 42 3f be 4f 7c 92 bf 19 91 a5 bf 7f 58 77 bf
       -0.18677647 -1.1444186 -1.2934905 -0.9661941
000320 da 04 8d 3f a0 86 3d bf a6 53 72 bf 8a a3 c4 3f
       1.1017106 -0.74033546 -0.9465889 1.5362408
000330 ac 1c cc bd 85 52 19 3f ed 71 b0 be a6 c0 c7 3e
       -0.09966406 0.5989154 -0.34461918 0.39014167
000340 55 00 36 3f 51 3d 39 3f 8c e4 79 3f 08 3e 95 bf
       0.71094257 0.72359186 0.9761436 -1.1659555
000350 0c 97 13 bf 3a 92 09 40 4d d5 dc be 84 de ba be
       -0.57652354 2.14955 -0.43131486 -0.3649789
000360 62 62 bd 3e 32 b6 bf 3d 38 f4 6d 3e 41 a3 b3 be
       0.36989123 0.09360923 0.23237693 -0.3508549
000370 94 37 9e be 1c 5e 83 3f 3b 2c ea 3d 35 3a d1 3f
       -0.30901778 1.0263095 0.114342175 1.6345888
000380 4e eb 1e bf 68 32 75 bd 76 7f ad 3f 29 0a 5b 3d
       -0.62077796 -0.059862524 1.3554523 0.053476486
000390 0d c5 5b 3f ec 61 b9 3f 2c 6d 20 3f 87 a2 11 3e
       0.8584755 1.4483008 0.62666583 0.14222156
0003a0 71 28 9b 3c c5 26 cd bf fd b9 19 40 c8 e3 3a bf
       0.018940182 -1.6027457 2.4019768 -0.73003817
0003b0 b8 a9 75 bf ed d1 4f bf 61 95 ae 3e 4a d9 66 3f
       -0.95962095 -0.81179696 0.34098342 0.90175307
0003c0 75 21 cb 3e 4e 5d 20 bf 8f 03 fd bf 6e 4b 82 3f
       0.39673963 -0.6264237 -1.9766711 1.0179269
0003d0 e0 50 a0 3f ee 8e a6 3e a5 5e af 3f bc 91 96 3e
       1.2524681 0.32530922 1.3700758 0.29408062
0003e0 1a 94 14 40 f7 f8 82 bd e0 29 db 3f 3d 6b 97 bf
       2.3215394 -0.063951425 1.7122154 -1.1829602
0003f0 e8 d1 a0 bf 77 39 9c bf 1d 7b ee bd 8d f5 87 3f
       -1.2564058 -1.2205037 -0.11644576 1.0621811

fc1.weight f4 [64, 32]
000000 7a ae 42 3e 77 de 84 be c1 6c 85 3e d1 c3 c4 3d
       0.1901187 -0.25950977 0.26059535 0.096076615
000010 04 e1 e7 bd 36 7b e9 3d 81 9b 3b be ff ee 03 be
       -0.11322215 0.11400454 -0.18321039 -0.12884139
000020 c1 2c 96 3e 60 94 fa 3d 35 98 a2 3e 65 48 91 3a
       0.2933102 0.122353315 0.3175675 0.0011084197
000030 a2 85 15 bc c2 45 9b 3c 63 96 03 bf be 2e 66 bd
       -0.009126099 0.018954162 -0.51401347 -0.05619692
000040 12 25 9b be 4d 9e 0f 3e 67 05 8b be 3d d4 aa be
       -0.3030172 0.1402523 -0.2715256 -0.3336505
000050 a3 6d a8 3e 04 2b 24 bd b6 1d ee 3d ce 75 69 3e
       0.32896146 -0.040080085 0.11626761 0.22798845
000060 da f0 b1 be a5 2f 9c bd 4c 29 cc 3e 70 de 65 bd
       -0.34754068 -0.07626275 0.39875257 -0.056120336
000070 b4 6b 2e 3e f0 df 23 bd 84 36 16 be 0e ff 89 3d
       0.17033273 -0.040008485 -0.14669234 0.06738101
000080 f2 55 74 3d 46 4c 11 be d8 d1 8a be d7 dd 15 bf
       0.059652276 -0.14189252 -0.27113223 -0.58541626
000090 e6 b5 8c 3e 84 c6 ff bd 3a ab bb bd c0 8e 31 3e
       0.27482527 -0.12489036 -0.09163518 0.17339611
0000a0 5f a2 80 3e 61 8f d8 3d 8b 55 25 be 9c 96 8b 3e
       0.2512388 0.10574222 -0.16145913 0.27263343
0000b0 f4 74 40 3d 0a 80 dd be f7 2f 29 be 53 c5 42 3e
       0.046986535 -0.4326175 -0.16522203 0.19020586
0000c0 fb 16 33 3e f9 46 c2 bd a6 d8 08 bc 42 c1 e3 3d
       0.17489235 -0.09486193 -0.008352434 0.111208454
0000d0 5e 94 4b bd b1 51 b8 be c5 25 e5 bd e2 96 49 3d
       -0.04970204 -0.35999826 -0.111888446 0.04921616
0000e0 5c af 09 3e ff 73 69 bc cc 1b 58 3e c4 82 54 3e
       0.134458 -0.014248847 0.21104354 0.20753008
0000f0 41 1b 07 be 39 4b ce bd a4 a5 84 be 22 f5 65 bd
       -0.1319399 -0.10072941 -0.25907624 -0.05614198
000100 71 f6 17 bf a1 dd 92 3e 1c 75 99 be 5f 97 55 be
       -0.59360415 0.28684714 -0.2997216 -0.20858525
000110 93 27 19 bf dc 0b f9 3c a8 d6 ab 3d 97 7e a3 3d
       -0.5982601 0.030401163 0.08390552 0.079831295
000120 97 98 b8 be 24 c9 9f be 48 b6 b3 be d3 9d 55 be
       -0.36053917 -0.31208146 -0.35100007 -0.20860986
000130 75 53 23 3d 5e 4c 0d bf d9 3f 79 3f 65 26 17 3f
       0.039874513 -0.5519465 0.9736305 0.5904296
000140 2c 11 50 3f c8 0c d5 be 9f b2 fe 3e 96 7b cf 3e
       0.812762 -0.41611314 0.49745652 0.40523976
000150 b9 5b 29 bf 52 91 bf bd 12 25 24 be 51 5b 8c bd
       -0.6615558 -0.093538895 -0.16029766 -0.06853355
000160 96 a3 f1 3e eb 35 a9 3e 4f 5c de be 16 31 f8 3e
       0.4719512 0.3304895 -0.434298 0.4847495
000170 96 7b 8e be 8b 92 f3 3d b2 80 0b 3e 90 03 7a be
       -0.27828664 0.11893185 0.13623312 -0.24415421
000180 35 2a ad ba 9a f1 fc be 20 89 ab be 67 25 92 be
       -0.0013211431 -0.49403077 -0.33503056 -0.2854416
000190 36 ab 04 3e a8 87 2c bc 95 22 c7 bd 13 00 c2 bc
       0.12955937 -0.01053039 -0.09723393 -0.023681676
0001a0 47 ac aa 3e 23 72 c0 3d 06 ff 82 be 26 1c 1a 3e
       0.33334562 0.0939677 -0.25585192 0.150498
0001b0 5f d6 69 be 86 11 ef bd ad 27 15 bf 04 b9 0b 3d
       -0.22835682 -0.11673264 -0.58263665 0.03411199
0001c0 c5 6e d0 3e 8c 80 97 be a8 b3 fa 3e 8f 38 ef 3d
       0.4070951 -0.2959026 0.48965192 0.116807096
0001d0 04 91 15 3e 1a 62 e1 be 8a 91 ef 3c c0 05 67 bb
       0.146061 -0.44020158 0.029244203 -0.003525123
0001e0 40 d8 92 3e 3b 39 39 be ab 61 49 3e 1e 84 bb be
       0.2868061 -0.18088238 0.19666164 -0.36624235
0001f0 b2 d4 39 bf d3 a2 a4 be fd 51 50 3d e5 ee 21 be
       -0.7259017 -0.32155475 0.05085944 -0.15813787
000200 5a 85 06 3f 57 65 0f bf d3 d1 89 3e 3f c9 09 3f
       0.5254723 -0.5601401 0.26917896 0.538227
000210 38 2b b0 3e 72 b7 1a 3e 7d 7e 1f 3d 97 55 ae bd
       0.34407973 0.15109041 0.038938988 -0.08512419
000220 af c4 fa 3c cd b6 ff 3e 6c c4 e1 3e e3 a3 2e 3e
       0.030611364 0.49944153 0.4409517 0.17054705
000230 9b c3 cd be 82 50 00 3f db d1 08 bf df 4b 53 be
       -0.40188298 0.50122845 -0.53445214 -0.20634411
000240 1a ee dc be e0 ea b6 3e 68 2c f3 be 38 6b ef be
       -0.43150407 0.3572607 -0.47494817 -0.4676149
000250 fd de 16 3f 28 1a 41 3e 29 a1 a9 3d 25 67 7f 3e
       0.58934003 0.18857634 0.08282692 0.2494169
000260 ca e6 0a bf 7e 6a ef be c3 03 21 3f 75 c7 ca be
       -0.54258406 -0.46760935 0.62896365 -0.396053
000270 56 fe 0b 3f 43 91 ad bd 28 46 a4 3b a5 99 13 3d
       0.5468496 -0.08474972 0.005013246 0.0360352
000280 f8 7e 30 3e 28 6b 9c 3d 3d ff 60 3e 61 72 f6 bd
       0.17235935 0.07637626 0.21972366 -0.12033535
000290 e1 37 a5 bd f7 4f d8 bc 5b e1 81 3c 95 b3 0b 3e
       -0.08067299 -0.026405318 0.015854528 0.13642724
0002a0 77 7c 02 be 7e a9 67 3d c5 c5 11 be 7d 8b 8a 3e
       -0.12742792 0.056558125 -0.142356 0.27059546
0002b0 3e 38 5e 3b 1c 54 97 be bd fd 81 3d be 40 a4 bd
       0.0033908035 -0.29556358 0.06347225 -0.08020161
0002c0 00 03 97 3e 82 69 36 3b a5 b0 53 3e 4d c8 4c bd
       0.29494476 0.0027833884 0.20672853 -0.04999571
0002d0 66 10 d3 bd cf 38 29 3d 89 e3 90 3d eb 5f 74 3e
       -0.10305862 0.041313943 0.07074649 0.23864715
0002e0 93 a3 1e bd 9b a0 60 3e 57 dc 96 3b 45 55 6c be
       -0.038730215 0.21936266 0.0046039033 -0.23079403
0002f0 fc 4d ae be a2 de 34 bc a4 98 05 3d b4 5a 9c be
       -0.34043872 -0.011039408 0.032616273 -0.3053795
000300 33 82 b7 3e f9 f0 36 bf b5 5a 80 3e d5 14 d9 3e
       0.35841522 -0.71461445 0.25069204 0.42398706
000310 31 ae f4 3d b4 53 be 3e 7b a9 18 be cb 4b 69 be
       0.11947287 0.37173235 -0.14908402 -0.22782819
000320 ea 24 ba 3e b9 ab 05 3f b9 9a 0b 3f 75 00 ba 3d
       0.36356288 0.5221515 0.54532963 0.090821184
000330 c0 29 9b be 2c be da 3e 95 52 df be f8 8b ff be
       -0.3030529 0.42723215 -0.43617693 -0.49911475
000340 8e a9 36 bf 3d a8 02 3f 0a 81 3f bf 09 43 e9 be
       -0.7135247 0.5103796 -0.74806273 -0.45558956
000350 c4 e7 c2 3e b4 8f b5 3e bd d4 8a 3d 17 0b c4 3e
       0.38067448 0.354612 0.06778858 0.3828971
000360 d2 8d 1c bf 1e ca fe be f4 86 76 3f 0b 28 e6 be
       -0.611539 -0.49763578 0.9629967 -0.44952425
000370 07 b4 07 3f f7 bd e0 bd 21 79 6a bd 65 41 95 bd
       0.53009075 -0.10973733 -0.057244424 -0.07287864
000380 f0 61 ba 3d b0 b6 82 be 16 1c 27 3e 1a 1a b7 bd
       0.09100711 -0.25530005 0.16319308 -0.08940525
000390 7d 74 80 bc 54 e4 c5 bd cb 00 47 be 48 09 4f bd
       -0.015680546 -0.09662691 -0.19433896 -0.05054596
0003a0 bf 39 91 3d 92 3d 4a 3d 6e 83 8d 3a eb 2a ad bd
       0.07091092 0.049375124 0.0010796615 -0.084554516
0003b0 3f bd 8d bc 26 40 ae bd 24 a1 34 3c a3 e5 04 bd
       -0.017302154 -0.08508329 0.011024747 -0.03244556
0003c0 e2 11 01 3b 66 b9 75 be 2f c4 8e 3d 7a c4 88 bd
       0.0019694497 -0.23996505 0.06971013 -0.066781
0003d0 c2 49 29 3d 66 81 52 be a7 4a e7 bb f0 6c a2 3d
       0.041330107 -0.20557174 -0.00705846 0.079309344
0003e0 f2 e8 91 3e 93 6a 0c bc 59 a9 84 bd 5c 12 46 be
       0.28498036 -0.008570331 -0.06477613 -0.19342941
0003f0 8a a3 44 be 86 86 89 bd 28 b6 01 3d f7 de 3e 3e
       -0.1920301 -0.067151114 0.03166786 0.18639742

fc1.bias f4 [64]
000000 1c bd 1a be 82 e2 07 be db e9 75 bc f3 cb a0 be
       -0.15111202 -0.1327 -0.015009369 -0.314056
000010 87 fc 25 3e dc 42 a7 be 0a 9e c2 3d 41 d9 20 be
       0.16209613 -0.32668197 0.095028 -0.15707876
000020 ad d5 5a bd 57 b9 68 be 58 47 a6 be 55 e4 d2 be
       -0.053426433 -0.22726952 -0.32476306 -0.4118983
000030 7e 1d 3b 3e 10 35 57 be e9 1e e7 3d 85 b3 26 be
       0.18272969 -0.21016335 0.112851925 -0.16279419
000040 2c de 9f bc b4 e0 27 be 71 e9 77 be 66 80 b0 bd
       -0.01951512 -0.16394311 -0.24210145 -0.0861824
000050 57 a3 03 be eb e9 02 3d e1 20 95 bd 60 8a 3f 3e
       -0.12855278 0.031961363 -0.07281662 0.1870513
000060 35 1d ad bd 0d 88 32 be ce e8 32 be c3 a4 5b 3d
       -0.084528364 -0.17434712 -0.1747162 0.053623926
000070 c5 c9 e8 3d 58 68 0a 3e e9 02 09 3d 85 e6 ca 3d
       0.113666095 0.13516366 0.03345004 0.09907249
000080 17 17 47 3e f0 8d 92 be e7 2c 53 3d 49 bb c2 be
       0.19442402 -0.28623915 0.051556494 -0.38033512
000090 ed ba 1b 3e a6 9a 0f be 5f 60 5a be a4 92 a3 be
       0.15208025 -0.14023837 -0.21325825 -0.31947815
0000a0 6e 8d f1 bb 92 42 73 bd f5 f6 32 3e 40 96 f0 3d
       -0.007371596 -0.05938966 0.17477019 0.11747408
0000b0 49 3f 42 3d b6 7d 5f bd 4f af 72 3d a2 20 7b be
       0.047423635 -0.054563247 0.05924922 -0.24524167
0000c0 80 81 b0 bc 6e c3 18 3e ff 4d 8c be b4 80 6b 3d
       -0.021546125 0.149183 -0.27403256 0.057495788
0000d0 26 03 37 be 23 ca 64 3c f4 3a 0f 3e 2f 91 0c be
       -0.17872295 0.013964209 0.13987333 -0.13727258
0000e0 df e0 10 3e 46 64 23 3d 57 3b 94 3d 1a 68 92 be
       0.14148282 0.03989055 0.07237881 -0.28595048
0000f0 bb 16 ac bd ed 69 4b bd 77 f7 f3 bd 11 52 01 3e
       -0.08402773 -0.049661566 -0.119124345 0.12628962

fc2.weight f4 [1, 64]
000000 f5 b6 7a 3c a6 25 8f bc e4 1e ec 3d 30 d1 9c be
       0.015302409 -0.017474007 0.115293294 -0.30628347
000010 6b c8 6b be af e1 19 3c 82 31 10 bf 72 e1 d1 bc
       -0.23025672 0.009392186 -0.5632554 -0.025620196
000020 a2 f3 07 bd dc 6c 8d 3d bd f9 05 3d 74 45 41 3e
       -0.03319133 0.06905529 0.032708872 0.1887415
000030 45 6e 2d be 0d b4 12 3d e2 61 8e be c0 f2 48 bd
       -0.16936596 0.03581624 -0.27809054 -0.04905963
000040 5b 16 06 be 39 1c 5a 3f c4 fc 6e bd bd 4b 8e 3e
       -0.13094465 0.85199314 -0.058346525 0.2779216
000050 43 ee cf bd 81 c1 50 3e 14 7a f9 bd 8f a4 9f be
       -0.10152867 0.20386316 -0.12181488 -0.31180236
000060 91 d3 98 3e 00 fd 95 3c fe db 28 3d 05 82 d8 3d
       0.29848912 0.018309116 0.041225426 0.10571674
000070 55 15 05 bf e9 05 97 be 8a bb b4 3e a9 e5 3b be
       -0.51985675 -0.29496697 0.3529933 -0.18349327
000080 a5 ca 28 bf 2f 73 3f 3e ff 6f 9a be 10 16 51 3e
       -0.6593421 0.18696283 -0.3016357 0.20418572
000090 d5 73 bd be 00 1e 33 3b c7 1c 08 bd a9 85 7f 3e
       -0.37002435 0.0027331114 -0.03323057 0.24953331
0000a0 34 41 67 3b 16 c7 af bc 7f 1b 3b 3f d7 ab 94 be
       0.0035286667 -0.021457236 0.7308883 -0.29037353
0000b0 95 7d 3c be 17 a0 74 3e 10 48 99 be e3 4f fe 3c
       -0.1840728 0.23889194 -0.29937792 0.031043952
0000c0 4c 7c 4f 3e 12 7b 3c 3f 65 25 13 bd 41 23 2c 3f
       0.20262259 0.7362529 -0.035924334 0.67241293
0000d0 8b f5 5a 3d 6f 58 1f 3f 24 1d 1a bf 07 42 88 3d
       0.053456824 0.62244314 -0.60200715 0.06653219
0000e0 0c 0f dd be d0 89 12 3f 01 02 84 3e 49 cb 89 be
       -0.43175542 0.57241535 0.2578278 -0.26912907
0000f0 77 5f 80 3e 45 0c 6f 3e 6c 3e c7 3d a3 2a 38 3f
       0.25072834 0.23344524 0.09728703 0.7194006
