checkpoints/baseline_model.pth (torch, 651403 bytes, 4 tensors)

embedding.weight f4 [5002, 32]
-0.20407376 0.16362725 2.1129699 -0.6923427 -0.09018165 -0.2998987 -1.3406842 1.6121768
0.5644894 -1.1126158 -0.1441717 0.34569472 -1.1345565 0.47948456 -0.2889353 -0.71154565
0.2970018 0.040901147 0.28396243 -0.29451182 -0.04862584 0.5383685 0.797486 -0.9354701
0.98777306 -0.20888706 0.93894285 -0.9945435 0.25611463 -0.33558428 -0.99634033 -0.5186544
0.030279191 0.06979666 -0.29752892 0.7781184 0.14092466 -0.0068107527 0.46882886 0.7926436
-0.6134337 1.1939352 -0.11084725 0.6018974 -0.7581888 -0.033724807 0.19770876 1.2439613
0.2242426 0.07181683 0.12955135 0.11728756 -0.046423595 0.40415397 -0.2455069 0.8837383
0.09296869 0.0701949 -0.0043582013 0.09118285 -0.13030209 -0.7733965 0.016118731 0.066841885
-0.7013278 0.16490848 0.78107995 0.6747368 0.19810174 0.7431965 0.7849764 0.55729455
-0.050488636 -1.1913723 0.27669054 1.1016833 -0.74715537 -0.38664538 1.0801725 0.4332796
0.09538105 0.82742167 0.9779972 -0.29044643 0.29533082 -0.5514354 -0.8890548 -0.34781566
-0.46065181 -1.1721213 0.036577094 0.02943866 -0.34676635 0.2447758 -1.9425718 0.7960756
1.5893695 -0.108849324 0.49805623 -0.17860515 -0.14119424 0.2731153 0.583791 -1.126683
-0.0020741178 1.4816716 2.03493 -1.110001 2.4435394 0.6981178 -1.0071089 0.23937744
1.5837982 0.15454172 -1.4881259 0.38818735 -0.53876084 -1.1335989 -1.0225579 -0.27586043
-0.58266795 0.14636634 -1.5321152 0.035967592 0.38164544 -0.4594545 -0.12569185 -0.08428992
0.96829534 -0.36044237 -0.5534872 -0.7902454 0.1056455 1.0314325 -1.1737332 -0.8679855
-0.7712136 1.6062281 -0.3595574 0.24163795 -0.09351081 -0.35314354 -0.46999857 -0.6719241
-0.30068266 -0.096850134 0.4988066 -0.12738201 -0.18439157 -1.1000105 0.38296446 0.23574093
-0.16424586 0.524419 0.22811335 -0.6707036 0.41291335 -0.92266667 1.2567822 0.36529294
-0.49150246 -0.7190121 -0.9368308 0.03851191 -0.6843568 -1.2698382 1.2978796 -0.27272215
-0.092869654 -1.219615 -0.089560814 -0.8624426 -0.51721144 -0.48482826 -0.13264805 0.20108306
0.15819547 -1.6251084 -0.06255091 -0.77835464 -0.059239004 0.15179394 0.18455005 -0.54016083
-1.6161338 -0.47457513 0.2918643 0.36994419 0.21506192 1.3064736 0.23568034 0.43840522
0.7431737 -0.7316568 1.0136834 -0.8433622 0.23352975 -1.4268122 0.54082227 0.29861084
-0.14029032 -0.2918833 -0.4546846 -1.5674248 2.0061848 -0.16172342 -0.9287607 -0.38953078
0.34400043 -0.52217335 -0.52429193 0.124322094 -1.0488465 0.7303248 -0.907598 0.07500161
-0.8935966 -0.48904696 0.016396087 0.1402566 -1.1616052 0.62143916 0.57051605 0.14347054
-0.38613424 1.2981328 1.572317 0.6015335 0.83870876 0.962788 -0.35149226 -1.2932382
1.8413891 -0.78891087 0.510951 -0.03655182 -1.2433555 1.6601322 0.31829464 0.6490253
0.269501 0.5986044 0.15756881 0.11626232 1.2117399 -0.6966538 -0.01965041 1.0420464
-0.88681775 0.84244365 0.55254906 -0.7998534 0.19624561 -0.65256584 -0.86248976 0.37456506
00000000: b6f8 50be e78d 273e e63a 0740 5f3d 31bf
00000010: 28b1 b8bd 538c 99be 8a9b abbf cf5b ce3f
00000020: 6182 103f 326a 8ebf bfa1 13be e6fe b03e
00000030: 2639 91bf 007f f53e 54ef 93be db27 36bf
00000040: 9f10 983e f687 273d 8663 913e 41ca 96be
00000050: e42b 47bd 85d2 093f 0b28 4c3f f87a 6fbf
00000060: b2de 7c3f 7de6 55be 8f5e 703f 679a 7ebf
00000070: 7521 833e b4d1 abbe 2910 7fbf 89c6 04bf
00000080: 110c f83c 8df1 8e3d b655 98be c432 473f
00000090: 8e4e 103e bc2c dfbb 560a f03e b1ea 4a3f
000000a0: fe09 1dbf ded2 983f e203 e3bd f315 1a3f
000000b0: a918 42bf 0623 0abd 2a74 4a3e 203a 9f3f
000000c0: da9f 653e b414 933d 1ca9 043e 7634 f03d
000000d0: ab26 3ebd 45ed ce3e 2966 7bbe ac3c 623f
000000e0: 5e66 be3d 58c2 8f3d 3ecf 8ebb 13be ba3d
000000f0: e96d 05be 50fd 45bf 6e0b 843c 66e4 883d
00000100: 388a 33bf c5dd 283e dbf4 473f 8dbb 2c3f
00000110: 2fdb 4a3e 2042 3e3f 37f4 483f dbaa 0e3f
00000120: 2ccd 4ebd e37e 98bf 62aa 8d3e f503 8d3f
00000130: 9345 3fbf 62f6 c5be 1843 8a3f d3d6 dd3e
00000140: 2457 c33d e8d1 533f 065e 7a3f 65b5 94be
00000150: 9a35 973e df2a 0dbf 1899 63bf e514 b2be
00000160: 8eda ebbe 1208 96bf ddd1 153d 5829 f13c
00000170: 5c8b b1be 82a6 7a3e 31a6 f8bf 9ccb 4b3f
00000180: 7670 cb3f 65ec debd 3a01 ff3e 45e4 36be
00000190: 3995 10be c5d5 8b3e 5473 153f 2637 90bf
000001a0: eced 07bb 6aa7 bd3f 4b3c 0240 8314 8ebf
000001b0: f362 1c40 d9b7 323f f2e8 80bf 5c1f 753e
000001c0: e6b9 ca3f 2f40 1e3e e97a bebf 7ec0 c63e
000001d0: 3bec 09bf c519 91bf 2de3 82bf 943d 8dbe
000001e0: ba29 15bf 0fe1 153e 5a1c c4bf c152 133d
000001f0: 0867 c33e 9f3d ebbe 5db5 00be 32a0 acbd
00000200: 34e2 773f e78b b8be 56b1 0dbf 864d 4abf
00000210: ab5c d83d fb05 843f e43c 96bf 4c34 5ebf
00000220: 416e 45bf e298 cd3f e817 b8be f06f 773e
00000230: 9882 bfbd 3bcf b4be a7a3 f0be 3803 2cbf
00000240: 14f3 99be 5d59 c6bd 9463 ff3e 6e70 02be
00000250: 25d1 3cbe 25cd 8cbf eb13 c43e 1266 713e
00000260: 1130 28be 5340 063f 8c96 693e 3bb3 2bbf
00000270: 6169 d33e e233 6cbf 3dde a03f ad07 bb3e
00000280: 36a6 fbbe 2d11 38bf 25d4 6fbf aabe 1d3d
00000290: 0232 2fbf 0f8a a2bf eb20 a63f 3da2 8bbe
000002a0: 7232 bebd 581c 9cbf a96b b7bd 0ac9 5cbf
000002b0: f867 04bf 693b f8be e4d4 07be b8e8 4d3e
000002c0: fefd 213e 8d03 d0bf b11a 80bd 4042 47bf
000002d0: 99a4 72bd df6f 1b3e b0fa 3c3e fb47 0abf
000002e0: 79dd cebf 83fb f2be 3d6f 953e 5369 bd3e
000002f0: 3139 5c3e 873a a73f 3056 713e a676 e03e
00000300: a240 3e3f dc4d 3bbf 61c0 813f 96e6 57bf
00000310: 6c22 6f3e c8a1 b6bf 5473 0a3f 85e3 983e
00000320: 44a8 0fbe ba71 95be 6bcc e8be 60a1 c8bf
00000330: 5565 0040 d39a 25be 43c3 6dbf 9470 c7be
00000340: d320 b03e 27ad 05bf ff37 06bf 959c fe3d
00000350: 9a40 86bf 91f6 3a3f 5858 68bf 729a 993d
00000360: bfc2 64bf 5d64 fabe 1651 863c 6d9f 0f3e
00000370: 7baf 94bf a316 1f3f 570d 123f f1e9 123e
00000380: 63b3 c5be 3729 a63f af41 c93f 19fe 193f
00000390: 9eb5 563f 4679 763f cbf6 b3be d488 a5bf
000003a0: a3b2 eb3f 10f6 49bf afcd 023f 5cb7 15bd
000003b0: 4626 9fbf 367f d43f 84f7 a23e 8626 263f
000003c0: 09fc 893e 233e 193f b859 213e f01a ee3d
000003d0: 4b1a 9b3f e757 32bf e6f9 a0bc c761 853f
000003e0: 7d06 63bf 63aa 573f db73 0d3f 31c3 4cbf
000003f0: 9cf4 483e 8e0e 27bf 21cc 5cbf fec6 bf3e

fc1.weight f4 [64, 32]
1.1818141 0.13348773 -0.26006982 -0.24412441 0.013803266 -0.5619569 0.708312 -0.27291846
0.6013463 0.3068055 0.89914006 0.33014458 -0.1741489 -0.4472255 -0.5050784 -0.7364516
0.68719363 -0.60794556 0.19233288 1.2915869 -1.0556952 -0.27964798 -0.58087033 1.0199434
-0.1688041 0.84491825 -0.17123659 -0.41890115 1.0585816 -0.042015526 -0.18788229 0.43571016
0.2155586 0.51276505 -0.8301784 -0.5288373 0.6744625 -0.8192033 0.18200524 0.41612098
0.1505022 -0.19211797 1.0212972 0.55207646 -0.15536578 -0.9979222 0.2572739 -0.1482534
-0.5803151 -0.84304535 -0.49963555 0.19600955 -0.6697404 -0.64094347 -0.76373065 0.30485559
-1.1677957 1.0305034 0.407062 -1.7837093 0.43350095 -0.33784756 -0.60025704 0.81921804
-0.3550096 0.043444633 0.03343167 0.11836075 0.059803206 -0.6095106 0.070136495 0.21721874
0.3415617 -0.17925438 -0.20601828 0.16688542 -0.27149445 0.15162426 -0.06321689 -0.058202878
0.18318109 0.20443067 0.81969583 -0.16517723 0.16961025 0.0972853 0.1586775 0.09090209
0.08646146 0.07976604 0.15848875 -0.3640491 0.46819618 0.49903974 -0.08629018 0.26385415
0.25642785 -0.09592587 -0.11854121 0.002941776 -0.0018126426 -0.12238984 -0.043593146 0.07354242
-0.042391784 -0.10903142 0.46651846 -0.00094730814 -0.19167653 -0.14527431 0.063535795 0.08708169
0.010189012 -0.031448983 0.067570075 0.10576538 -0.28736028 -0.031666405 -0.011698184 0.0065529947
-0.014923816 0.14571026 0.11202983 -0.088374965 0.13014254 0.090325214 -0.04291628 -0.005072054
0.16769637 -0.08929223 -0.09537785 -0.042785283 -0.19440159 -0.12024944 0.1664879 -0.16570236
0.17655301 -0.020016743 0.11529126 0.05338642 -0.00014779154 -0.13760732 -0.057058126 0.039694417
-0.10292802 0.33686307 0.02246531 0.044418495 0.005295312 -0.00020947123 0.053014934 0.107836835
0.2856406 0.32143903 -0.08839622 -0.18954459 -0.13282107 -0.02697219 0.056021743 -0.057698015
-0.047004588 0.048299655 -0.1508727 0.24702746 -0.003503023 -0.2683063 0.45851675 0.009179957
0.14157723 -0.23490852 0.07468633 0.2974954 -0.06524616 -0.3956733 0.019861707 -0.30635682
0.036587894 -0.19154418 -0.27729088 0.5374242 -0.24287915 0.28123572 -0.122196406 0.18865874
0.20950718 0.3084242 -0.34470105 0.28675732 -0.50157535 0.692794 0.4075373 0.25490397
0.067941144 -0.21891269 -0.08477528 -0.19464006 0.07117708 -0.44064522 -0.09367945 -0.1764867
0.1596415 0.051881555 -0.17463496 -0.27252638 0.16830315 0.0537183 -0.09721396 0.06650609
0.03691155 -0.43404862 -0.13155155 0.009172145 -0.1378851 -0.08198618 -0.067536645 0.06438197
0.19746755 0.09531673 -0.15829656 -0.3054533 0.06220765 0.059920415 0.11696042 -0.08879488
-0.10555182 0.2220984 -0.20591697 -0.082602635 0.063692056 -0.06847507 0.24642609 0.06750866
-0.052531727 -0.21637511 0.34733328 0.045719594 0.013505313 0.08213612 -0.024184003 -0.31564555
0.07110526 -0.00088348764 -0.037294723 0.25862497 -0.10585826 -0.03600188 0.17684399 0.17376724
0.14105454 0.19393305 -0.0050380747 -0.1212392 0.09711953 0.17775732 0.16620748 0.15760136
00000000: af45 973f 02b1 083e df27 85be c0fb 79be
00000010: 1827 623c 68dc 0fbf ef53 353f f8bb 8bbe
00000020: d5f1 193f 9c15 9d3e 0b2e 663f b608 a93e
00000030: 1754 32be befa e4be d14c 01bf 1888 3cbf
00000040: eceb 2f3f 52a2 1bbf e9f2 443e b852 a53f
00000050: 0521 87bf 052e 8fbe ebb3 14bf 818d 823f
00000060: fbda 2cbe 904c 583f a558 2fbe 367a d6be
00000070: 9a7f 873f 7918 2cbd 3764 40be 6715 df3e
00000080: 65bb 5c3e 9244 033f 9286 54bf e261 07bf
00000090: 93a9 2c3f 4fb7 51bf 955f 3a3e cf0d d53e
000000a0: 401d 1a3e 93ba 44be deb9 823f e254 0d3f
000000b0: 3518 1fbe d477 7fbf 68b9 833e bdcf 17be
000000c0: 888f 14bf d2d1 57bf 3bd0 ffbe bab6 483e
000000d0: 1b74 2bbf df14 24bf da83 43bf 0816 9c3e
000000e0: 547a 95bf 89e7 833f 6e6a d03e 9650 e4bf
000000f0: d6f3 dd3e 5bfa acbe 72aa 19bf 46b8 513f
00000100: d1c3 b5be 00f3 313d a6ef 083d 1f67 f23d
00000110: 35f4 743d e308 1cbf b9a3 8f3d 976e 5e3e
00000120: 2de1 ae3e 768e 37be 75f6 52be 03e4 2a3e
00000130: 5201 8bbe 6443 1b3e db77 81bd 2466 6ebd
00000140: d393 3b3e 4656 513e 96d7 513f 3824 29be
00000150: 4fae 2d3e 843d c73d 5b7c 223e e02a ba3d
00000160: b512 b13d 615c a33d e04a 223e a564 babe
00000170: 69b7 ef3e 2382 ff3e e8b8 b0bd e417 873e
00000180: 834a 833e c874 c4bd bcc5 f2bd d0ca 403b
00000190: 3196 edba 86a7 fabd ba8e 32bd 699d 963d
000001a0: 02a3 2dbd dd4b dfbd 82db ee3e c654 78ba
000001b0: da46 44be cac2 14be 0e1f 823d e357 b23d
000001c0: d0ef 263c a6d0 00bd 2e62 8a3d 859b d83d
000001d0: e320 93be a2b4 01bd bda9 3fbc 81ba d63b
000001e0: 0583 74bc 1235 153e e56f e53d effd b4bd
000001f0: 1644 053e 6dfc b83d fbc8 2fbd 7933 a6bb
00000200: 99b8 2b3e d8de b6bd 7655 c3bd 9f3f 2fbd
00000210: 3611 47be 5745 f6bd ce7b 2a3e e1ad 29be
00000220: 50ca 343e 27fa a3bc d31d ec3d b8ab 5a3d
00000230: 7df8 1ab9 efe8 0cbe c8b5 69bd 9d96 223d
00000240: edcb d2bd 5179 ac3e 2b09 b83c 2bf0 353d
00000250: 4c84 ad3b 81a5 5bb9 3026 593d 8fd9 dc3d
00000260: 7c3f 923e a893 a43e 1409 b5bd fa17 42be
00000270: 3f02 08be c8f4 dcbc 0e77 653d c154 6cbd
00000280: e287 40bd dcd5 453d 607e 1abe c4f4 7c3e
00000290: f992 65bb 715f 89be b5c2 ea3e 8867 163c
000002a0: 9ff9 103e dc8b 70be 26f5 983d 5151 983e
000002b0: c79f 85bd b195 cabe 05b5 a23c cdda 9cbe
000002c0: 30dd 153d 2824 44be 12f9 8dbe a294 093f
000002d0: 50b5 78be 21fe 8f3e 1c42 fabd c22f 413e
000002e0: 0d89 563e c7e9 9d3e a87c b0be dbd1 923e
000002f0: 3e67 00bf f35a 313f bba8 d03e c682 823e
00000300: ba24 8b3d a62a 60be a99e adbd b94f 47be
00000310: 4ac5 913d 409c e1be 03db bfbd eeb8 34be
00000320: 1079 233e c181 543d 82d3 32be 9488 8bbe
00000330: a957 2c3e b807 5c3d 1d18 c7bd 5834 883d
00000340: 9130 173d 9f3b debe 73b5 06be c446 163c
00000350: c031 0dbe 5fe8 a7bd a750 8abd b2da 833d
00000360: ef34 4a3e 6b35 c33d 7e18 22be 6064 9cbe
00000370: 73cd 7e3d 1c6f 753d f288 ef3d 17da b5bd
00000380: 8d2b d8bd c36d 633e e6db 52be 922b a9bd
00000390: fb70 823d a83c 8cbd 1f57 7c3e fb41 8a3d
000003a0: 822b 57bd 7091 5dbe abd5 b13e 7844 3b3d
000003b0: 6345 5d3c fb36 a83d 881d c6bc 4b9c a1be
000003c0: a29f 913d da99 67ba 5ac2 18bd 7e6a 843e
000003d0: 37cc d8bd b576 13bd 9716 353e 0af0 313e
000003e0: 9a70 103e 6396 463e 6f16 a5bb 424c f8bd
000003f0: 9be6 c63d 0406 363e 4b32 2a3e 4062 213e

fc1.bias f4 [64]
-0.49874416 0.15160973 -0.9093801 -0.37565067 -0.20611832 -0.48624173 -0.37870747 -0.4063413
0.12406808 -0.1604342 0.085465714 0.0143501675 -0.13969275 -0.28239685 -0.22842959 -0.4008382
-0.13129215 -0.43012905 -0.13362196 -0.1933607 -0.15996784 -0.32799253 -0.30749342 -0.054524705
-0.12751648 -0.2630965 -0.13574898 0.14959267 -0.004209972 0.14027835 -0.31307024 -0.29015112
0.09378659 -0.2814712 0.17105274 0.10232904 0.13580352 -0.1449172 -0.17527075 -0.09019648
-0.2637404 0.029752782 -0.026804648 -0.32648036 -0.7530999 -0.12609196 -0.18815655 -0.057830587
-0.19755341 0.07059432 0.07913651 0.104770705 -0.1713027 -0.12387421 -0.35100874 -0.32405865
-0.38861328 -0.07835689 -0.672749 -0.31833467 -0.015910836 -0.2516128 0.13999648 -0.17689863
00000000: 655b ffbe 953f 1b3e 22cd 68bf 4955 c0be
00000010: ae10 53be adf4 f8be f2e5 c1be f80b d0be
00000020: 6817 fe3d dd48 24be a608 af3d f71c 6b3c
00000030: 9e0b 0fbe 5296 90be 72e9 69be aa3a cdbe
00000040: 7371 06be e039 dcbe 32d4 08be 5900 46be
00000050: 9cce 23be a3ee a7be c76f 9dbe 4c55 5fbd
00000060: ae93 02be 96b4 86be c801 0bbe d22e 193e
00000070: cef3 89bb 21a5 0f3e be4a a0be b08e 94be
00000080: 2f13 c03d fe1c 90be 7328 2f3e e391 d13d
00000090: 1410 0b3e 2d65 14be 2d7a 33be efb8 b8bd
000000a0: fb08 87be 1bbc f33c 6c95 dbbc 6f28 a7be
000000b0: 28cb 40bf 401e 01be 1cac 40be c4df 6cbd
000000c0: 714b 4abe c193 903d 5312 a23d 0692 d63d
000000d0: fa69 2fbe c3b1 fdbd 6bb7 b3be 04eb a5be
000000e0: 52f8 c6be 9479 a0bd 4739 2cbf c3fc a2be
000000f0: 7157 82bc 65d3 80be 3d5b 0f3e ea24 35be

fc2.weight f4 [1, 64]
-0.17166846 0.37539738 0.018925557 0.0014214901 -0.029694807 -0.1680053 0.0175623 0.111166455
-0.8518295 0.22523019 -0.5023053 0.3069605 0.11596324 -0.027553638 0.033286225 0.067763686
0.946742 0.12785672 -0.09971553 -0.007910953 -0.051344823 0.02122657 0.14052401 0.43353
0.5531491 0.9003936 0.14771 0.70153356 -0.09679643 -0.78173715 -0.015793564 0.059156593
0.9019094 0.011448875 0.5902951 -0.66016924 -0.77969825 -0.0008958652 0.02549953 0.6515902
-0.011193155 0.5935763 0.38021857 0.053381212 0.13392909 1.2207057 -0.020518096 -0.20705009
0.059683602 -0.8529724 1.1402942 -0.67457515 0.6696937 -0.0035571787 0.9260484 -0.038227845
-0.15855005 0.4200154 0.02273347 -0.04408913 0.41569674 0.028723959 0.4358433 0.0036120145
00000000: dbc9 2fbe 1634 c03e c509 9b3c 4b51 ba3a
00000010: 8642 f3bc 9509 2cbe d0de 8f3c 3dab e33d
00000020: 8011 5abf bea2 663e 1597 00bf ed29 9d3e
00000030: 237e ed3d 2bb8 e1bc 2357 083d b0c7 8a3d
00000040: af5d 723f dfec 023e a837 ccbd f19c 01bc
00000050: f34e 52bd 58e3 ad3c 87e5 0f3e a5f7 dd3e
00000060: 2e9b 0d3f 3280 663f 4a41 173e b497 333f
00000070: 353d c6bd ed1f 48bf 8161 81bc 2f4e 723d
00000080: 89e3 663f 1094 3b3c 941d 173f da00 29bf
00000090: 4e9a 47bf 7fd8 6aba 64e4 d03c 9ece 263f
000000a0: 7f63 37bc 9ef4 173f 02ac c23e 42a6 5a3d
000000b0: b524 093e 1640 9c3f 9115 a8bc f004 54be
000000c0: cb76 743d 665c 5abf 29f5 913f f5b0 2cbf
000000d0: 0c71 2b3f 8e1f 69bb 8211 6d3f cd94 1cbd
000000e0: f25a 22be 420c d73e 8b3b ba3c ce96 34bd
000000f0: 34d6 d43e 824e eb3c da26 df3e 8cb7 6c3b
