checkpoints/baseline_model_ED_32.pth (torch, 651457 bytes, 4 tensors)

embedding.weight f4 [5002, 32]
00000000: a88b 233f b0c2 92be 6aba 29bf 94a2 ad3e
00000010: b374 ea3e 20b7 373f 184c 023f 92b3 bc3d
00000020: f327 49bf be68 91bf d101 22bf 021a 423f
00000030: ced6 1f3f 8e64 dbbe bf58 3840 1fa1 9f3f
00000040: 79d0 9e3f bb88 d43d 319e 0c3f 1bb9 5b3f
00000050: bf62 b33f 7116 513d f16b 443f 1a80 04bf
00000060: 53c1 e43e 36b9 7ebf 36c6 5dbf c54c a5be
00000070: 842a 493e e837 ebbf 2b6b a33f bd9e a43e
00000080: b4f9 68bf 8505 0cbf 2263 8cbd 0f6a e3be
00000090: 36d6 943e 2b75 b33e 31ab 803f eaf0 a03d
000000a0: 812b 883f 5ee8 aebf 02a1 11bf 7159 a3bf
000000b0: c439 b2bd 5e37 d33d 077d 97bf 9a72 543f
000000c0: 9cbb ef3d f0db 71bf f7d4 033f cad2 32bd
000000d0: 0f94 86be 9f1a c2bc cf0d 48bf dbcd 35bf
000000e0: a133 87bf 34af 213a 1271 e73d 9bff 5f3d
000000f0: 6872 16bf da8d 7abe 9f8b 54bf 9481 71be
00000100: 4c14 abbe 96bd 953e 9031 273e f0f1 383f
00000110: 6d99 de3e 719f 8fbf ed4c 4abf 7bfa 09be
00000120: 23af 49bd f6a1 e13e 4894 41bf 3e2d 073f
00000130: ce58 0e3d 5ac9 54be e76e d33e 8753 9abe
00000140: bc96 aabe 7ae6 b23e 23cc 593e f131 02be
00000150: 35f0 46bf 1c96 bdbf 350e 2abf dd38 41bf
00000160: 3f9d f43f 4fb6 91bf 9011 d6bd 6ef4 54bf
00000170: 2af5 a8be 96cd 5ebf cb17 c0bf 6aa9 90bd
00000180: 7a18 f23f 7897 88be b8bb 403f c5ce 44bf
00000190: 84ef 18bf 38e2 b73e d916 e1bf 449c bf3f
000001a0: f501 ae3e e1d1 f73d 6642 483f 57e9 d53e
000001b0: 92c7 923d 3861 f33e e6a1 fc3e d61a f83d
000001c0: 4184 01bf b16c 7b3f 28c1 88be ba59 75bf
000001d0: 3ed8 413f 4016 e3bc fefb 0f40 4a06 123f
000001e0: e2d0 5b3f f504 313f 5777 b23d 920f 44bf
000001f0: d1c0 213f 36ae 4c3f ed9d 38bf e8b8 713f
00000200: 0543 7a3f fc64 133d d159 d1be 3e26 4bbf
00000210: 7738 21bf 1e70 473f df70 7b3f 862e 5b3f
00000220: 63a3 c5bf b2c0 0540 d0ce 473f 4397 0ebf
00000230: 5a9a 483f 5e44 513f 9ff1 b6be dcb8 ecbf
00000240: 9586 45bf 15d8 bdbf 0647 b73c b8de 34bf
00000250: 6ed9 15c0 ae57 38be 9f3c 3e3f 0e27 ab3f
00000260: 6805 0e40 b653 2c3f aedf b43e 7ade 763e
00000270: 8ced 2f3f 9732 b13f d4e6 09bd db52 47bf
00000280: 62eb a63f 2c33 8f3f 5234 d63f 607e 47bf
00000290: 6583 8b3f 7ede 67bf b977 f53d ba44 04bf
000002a0: 8e62 47bf 19ff af3f 8569 603e 3bfc 96bb
000002b0: 660e 9f3f cd75 823f 2b5c 69bf 6d89 493e
000002c0: 8941 883f 0de1 393f a63a 543f 9191 4e3f
000002d0: cdeb 48be cf6e a13e 3ea7 423f 0e7e 0e3f
000002e0: 753f 7d3f 6278 0cbd b1a1 61bf becd b13e
000002f0: 1310 3dbf 5b9d 513e 347c d83e cd16 8a3f
00000300: dff2 1640 be27 cb3e 9b55 84bf 4306 5f3f
00000310: bd2b 54be e2d4 8ebe 3cbc c9bd c273 1f3e
00000320: 19c4 c53c 6cca c83f dae2 b73e 15ad f63e
00000330: 4f74 a53f 56af b3bd b667 8dbf b4e6 2c3f
00000340: 1023 e2bf 2041 a93e 35ce 093f 42f8 313e
00000350: b07a df3d a638 f3be ff98 a73d 3e29 3abe
00000360: 1015 893f 306c a93f 0f44 613e 5892 ffbe
00000370: bc1b 883d f735 673f ada5 21be fbac 0abf
00000380: 80ab 7bbf f029 c63e b4eb 74bf c7b1 b43f
00000390: e579 d83d 1d39 6bbf 97ba 1bbf 8e42 01bc
000003a0: 2eab a73f 7339 723e acaa 5d3f 10f3 9fbe
000003b0: dd80 cfbe 1d95 903f ae34 9bbe 096c d9be
000003c0: 3fae cabe 3d02 053f 106a 743d d574 813e
000003d0: d322 e6bf 88e2 443e 70be debf 5e20 6cbf
000003e0: 1aa9 1fc0 7903 30bf d8d4 27bf 5459 bdbe
000003f0: aaa7 823f 9ea1 2440 0eb8 833f eb02 563f
0.63884974 -0.2866416 -0.6630007 0.339131 0.4579216 0.717638 0.5089736 0.09213938
-0.7857658 -1.136009 -0.6328402 0.75820935 0.6243714 -0.42850155 2.8804166 1.2471045
1.2407371 0.10377642 0.5492888 0.85829324 1.401451 0.051046792 0.76727206 -0.5175797
0.44678745 -0.9950136 -0.8663057 -0.32285133 0.19645125 -1.8376436 1.276708 0.32152358
-0.91006017 -0.5469592 -0.068548456 -0.44416854 0.2906968 0.3505033 1.0052243 0.07858451
1.0638276 -1.3664663 -0.56886303 -1.276167 -0.08702424 0.10313295 -1.183503 0.8298737
0.117057055 -0.94476223 0.51496834 -0.043658055 -0.26284835 -0.023694335 -0.7814607 -0.71017236
-1.0562631 0.000616777 0.11300863 0.054687124 -0.5876832 -0.24468175 -0.83025545 -0.23584586
-0.33413923 0.29246205 0.163275 0.7224417 0.4347643 -1.1220533 -0.7902363 -0.13474457
-0.04923929 0.4406888 -0.75616884 0.5280341 0.03475266 -0.20779935 0.4129555 -0.3014185
-0.33318126 0.34941465 0.21269278 -0.12714364 -0.77710277 -1.4811435 -0.6642793 -0.7547739
1.9110488 -1.1383761 -0.104525685 -0.8318547 -0.32999545 -0.8703245 -1.5007261 -0.07063563
1.891372 -0.2667806 0.75286436 -0.76878005 -0.5974047 0.3591478 -1.7585098 1.4969563
0.33985868 0.12100578 0.78226316 0.41779587 0.07166971 0.4753511 0.4934227 0.121144935
-0.5059243 0.98212725 -0.26709867 -0.95840037 0.75720584 -0.02772057 2.2497554 0.57040846
0.85865605 0.6914819 0.087141685 -0.7658626 0.6318484 0.79953325 -0.72115976 0.9442277
0.97758514 0.035984978 -0.40888837 -0.7935523 -0.62976784 0.7790545 0.982191 0.85617864
-1.5440487 2.0898862 0.78049946 -0.5569956 0.7836052 0.81744945 -0.35731217 -1.8493915
-0.7715848 -1.4831568 0.022372734 -0.7065234 -2.3413959 -0.18002197 0.7431125 1.3371294
2.21908 0.6731523 0.35326904 0.24108306 0.6872184 1.3843564 -0.0336674 -0.778608
1.3040583 1.1187491 1.6734717 -0.7792721 1.0899473 -0.9057387 0.11985726 -0.5166737
-0.7788476 1.3749725 0.21915253 -0.004607705 1.2426269 1.01922 -0.9115626 0.1968133
1.0645 0.72609025 0.8290199 0.80690867 -0.19621201 0.31529853 0.7603644 0.55661094
0.9892495 -0.034294493 -0.88137347 0.3472728 -0.7385265 0.20470183 0.4228226 1.0788208
2.3585737 0.39678758 -1.0338625 0.8711893 -0.2071981 -0.27896792 -0.09850356 0.15571502
0.024141358 1.5686774 0.35915262 0.48178926 1.292612 -0.08773677 -1.1047275 0.67539525
-1.766695 0.330575 0.5383027 0.17379859 0.10912073 -0.47504157 0.081834786 -0.18179795
1.0709553 1.3236141 0.21998619 -0.4991634 0.06645915 0.9031672 -0.15785857 -0.541702
-0.98308563 0.3870387 -0.95672154 1.4116753 0.105701245 -0.9188402 -0.6083159 -0.007889403
1.3099115 0.23654728 0.8658855 -0.3124013 -0.40528002 1.1295506 -0.3031363 -0.42465237
-0.39586064 0.5195654 0.05967146 0.25284448 -1.7979378 0.1922704 -1.7401867 -0.9223689
-2.4946961 -0.687553 -0.6555915 -0.36982214 1.0207417 2.5723643 1.0290544 0.835982

fc1.weight f4 [64, 32]
00000000: db8a a03e 3ea2 b3be 1092 debc 9b0b 213f
00000010: 956c 0bbf 3301 69bf e544 213f 7234 4dbf
00000020: ef5f a13e 8242 3a3f 8538 eabe d288 6abc
00000030: 0565 8a3e 9deb 0a3f 6db6 543d afab 34be
00000040: 07ed 713e f358 f6be c904 313f 3e1b 4d3f
00000050: d259 d23e f9e2 d3be 9eab 4e3f 991e 483f
00000060: 37e9 943e 87b6 e33c daf0 803e b311 b3be
00000070: 9daa babe 6acd 8d3f 577f 0dbe 10c6 943a
00000080: f924 4bbd ec4a 763e 4292 7a3e a6ec d2bd
00000090: bd59 4dbe 3bbc df3d d712 46be fb31 c23e
000000a0: 8395 df3d 9f35 b9bc f65f ec3c c452 ae3d
000000b0: 0d55 e0bd 197b 5bbe 6a84 c7bd 9a58 2cbe
000000c0: 022d 713d 8f76 8abb 8f2b 7a3e 7192 5e3d
000000d0: eef8 5a3e 1e4a cdbc ef25 e53d 12f6 9fbc
000000e0: 8d6b 44be f742 2f3d 117e d13d fb50 c13e
000000f0: 433e b0bb f93e cd3c c1c5 e83d 3d5d 843e
00000100: c395 ce3e 57b7 6fbf f43b 5d3d 4c3e e73e
00000110: b357 cbbe 1bbb 19be c5d0 093f 944f 76bf
00000120: ed8a 893e a2a8 2e3f 7a6d c9be aafe b93e
00000130: 7f66 403f 52e7 5fbe c6ec 4bbe e12d 77be
00000140: 5bf0 2d3f 958a d8be 4228 823f 3c49 98bd
00000150: 0dff 01bd d2d7 51bf b19c 973e 88e5 cf3e
00000160: 0773 7f3e a4cb 14bf eda2 503e 7780 283f
00000170: de85 ecbe 275c 993f b994 5dbf d834 433f
00000180: bd5a 243d ca31 373f 3012 b33e bd1a fc3e
00000190: f2d7 eebe fa1b 12bf 12ae 2fbe 36ac 3dbe
000001a0: 764c 093e 56d5 9c3e 048a cf3d 0811 653e
000001b0: 260f 03bf e591 e0be 0ac8 01be 959c fcbe
000001c0: 6880 23be 457f 113d 00f1 63be 4833 3f3e
000001d0: a61b de3e 550d 173d f98f 873e 9d18 103e
000001e0: b113 27be 1ee5 cd3e 9402 2e3f 9975 3ebc
000001f0: b75e 66bd 7b5e 243f c859 053e ecbd 6bbe
00000200: 9168 d0bd ca75 cfbd 9548 533e 33b5 f33d
00000210: 3b56 a03d 2949 523d d250 10be 8dc3 56bd
00000220: 4f3a b0bd bd0c 9cbd ccc2 f5bd 7bc8 09be
00000230: 62bb 6ebe 3e36 3fbe eae1 183e ae8d 47bd
00000240: ac82 503d 9ea3 10be 1f23 00be c8d0 e3bc
00000250: e54b 9e3d adda c23c 7d88 c03d 3e2b 423e
00000260: b4c1 03bc 76fe a53d bb5a 833e 78df cc3d
00000270: 3a26 8abc 4403 8ebd 70d8 363e 9e0b f4bd
00000280: ce8e abbe dbaa 033f e544 06bf ee93 1ebf
00000290: 0620 3c3f 0b4e ba3e 816b afbe 3d52 363f
000002a0: fe12 21bf 92c1 e5be 7032 b83e 1316 afbe
000002b0: 42a8 38bf 187b 183f 38c2 483e 1489 d43e
000002c0: 6105 02bf 47bf ae3e e88b c9be 978b f3bc
000002d0: 5ee1 ddbe 58a0 543e 0fa4 cabe 9c51 dfbe
000002e0: e1e7 4dbd a391 f2bc e489 eebe 051a 12bf
000002f0: b496 123f eccf 8bbf 53ce 203f 35f3 1dbf
00000300: f942 9c3d b4c2 453e df07 0abe af72 92bd
00000310: 162c 39bd 70f2 49be 3a72 453e f5e0 093e
00000320: 2b81 f8bd 45d0 bbbc c41a a4bd c1c4 0c3e
00000330: 9d6e 083e 9694 183b c3f2 08be bcd6 a3be
00000340: c953 243e e586 1fbe 63d1 9ebd e196 a9bc
00000350: 22b6 86bd ede6 553b a162 4f3e a881 763c
00000360: 799d 933d 0b70 8cbd 9a57 733e 2212 483e
00000370: 1a9f a23d 6467 453e bbf2 863d f172 00be
00000380: 6449 1b3e 8bd8 20bd 9b63 f63d fab2 653e
00000390: 31a4 a33d 9b24 2a3d 1cad 2cbc a743 1c3e
000003a0: 92a2 41bb 8355 4fbd d0c9 613d b59a 5e3d
000003b0: 9806 c7be 58b3 56be b617 073b a9d2 eebc
000003c0: 448e 893e d9ef 253e 7566 7b3d d878 093e
000003d0: c094 e3bd 51ca 2dbd 6bb9 cdbd b129 7f3d
000003e0: 8fed 20bb 76de 78be 14e4 fa3e 3e36 e73e
000003f0: 3816 203e a3a1 ae3d a484 b33d efe1 0a3e
0.31355938 -0.35084718 -0.027169257 0.62908334 -0.5446256 -0.91017455 0.6299575 -0.8015815
0.31518504 0.7275773 -0.45746246 -0.014314847 0.27030197 0.5426577 0.051931787 -0.17643617
0.23625575 -0.48114738 0.69147927 0.80119693 0.41084152 -0.41384104 0.8073062 0.7817169
0.2908418 0.027796997 0.25183755 -0.3497444 -0.36458293 1.1078312 -0.13818108 0.0011350531
-0.049595807 0.24052018 0.24469855 -0.10299043 -0.20053764 0.10924574 -0.19343124 0.37928757
0.10917189 -0.022608576 0.028854351 0.0851188 -0.10953722 -0.21433677 -0.09742053 -0.16830674
0.058880813 -0.004225559 0.24430679 0.054338876 0.21384022 -0.025059756 0.11188876 -0.019526515
-0.19181652 0.042788472 0.102291234 0.37757096 -0.005378516 0.025054442 0.113658436 0.25852385
0.40348634 -0.9363913 0.054012254 0.45164716 -0.39715347 -0.15012781 0.5383418 -0.96215177
0.26863804 0.68226063 -0.39341336 0.36327106 0.75156397 -0.21865585 -0.1991454 -0.24138595
0.6794488 -0.4229323 1.0168536 -0.07435843 -0.031737376 -0.8196994 0.29611734 0.40604806
0.24946223 -0.5812323 0.20374651 0.6582102 -0.46195883 1.1981248 -0.8655506 0.7625251
0.040125597 0.7156035 0.34974813 0.4923915 -0.46649128 -0.5707394 -0.17156246 -0.18522725
0.13408074 0.30631512 0.10133746 0.22369778 -0.5119499 -0.4386131 -0.12673965 -0.49338213
-0.15966952 0.035521764 -0.22259903 0.18671906 0.4338047 0.03687795 0.2647703 0.14071889
-0.16316105 0.40213865 0.67972684 -0.011624717 -0.05624267 0.64206666 0.1302253 -0.23021668
-0.101761945 -0.10129888 0.20633157 0.118997954 0.07828947 0.051339302 -0.1409333 -0.052432586
-0.086048715 -0.07619617 -0.12000045 -0.13455383 -0.23313668 -0.18673036 0.1492993 -0.0487191
0.05090587 -0.14124915 -0.12513398 -0.027809516 0.077293195 0.023785913 0.09401033 0.18961808
-0.008041788 0.08105175 0.2565516 0.10003561 -0.016863931 -0.069342166 0.17856002 -0.11916278
-0.3350739 0.5143258 -0.52448875 -0.6194447 0.73486364 0.36387667 -0.34261706 0.71219236
-0.62919605 -0.44874245 0.3597598 -0.3419653 -0.7213174 0.59562826 0.19605339 0.41510832
-0.5078946 0.34130308 -0.39364552 -0.029729648 -0.43336004 0.20764291 -0.39578292 -0.4361695
-0.050269965 -0.02961046 -0.46589577 -0.5707095 0.57261205 -1.0922828 0.62814826 -0.6169923
0.076299615 0.19312555 -0.13479565 -0.071507804 -0.04520806 -0.19721389 0.19281855 0.1346472
-0.12134012 -0.02292646 -0.08012918 0.1374693 0.13323446 0.0023281923 -0.13373856 -0.31999767
0.16047587 -0.15578802 -0.07754781 -0.020701827 -0.06577708 0.0032638863 0.20252468 0.015045561
0.0720777 -0.06857308 0.23763886 0.19538167 0.079405025 0.19277722 0.06589266 -0.12543847
0.15164715 -0.03926901 0.12030717 0.22431555 0.079903014 0.041538816 -0.010539319 0.15260182
-0.0029546362 -0.05061866 0.055124104 0.05434676 -0.38872218 -0.20966852 0.0020613498 -0.029153185
0.26866353 0.16204776 0.061377008 0.13425004 -0.11112356 -0.042429272 -0.10045131 0.06229562
-0.0024555658 -0.24303612 0.49002135 0.4515857 0.15633476 0.085269235 0.087655336 0.1356275

fc1.bias f4 [64]
00000000: 6761 a1bd 47f6 ccbd 176d 5f3e a6d8 36bf
00000010: 3953 d2bd c8a3 353c 4fa3 9ebe dd34 febd
00000020: 6ae9 26be 7e2f 75be 92e1 0f3e 37bb 8dbe
00000030: 2ddb 1bbe a5b3 30bf ba88 8cbe a8d7 0abe
00000040: 915b 77bd f0bb abbe 1be5 7abe 2d5e f6be
00000050: d4b1 4e3d 199e 823d b6ce b9bd a4dc 1fbe
00000060: 8e16 f4be 5e44 d4bd eecf 8bbe 5db6 693d
00000070: 1c57 c8bd d4eb 1e3e 91ff 263d 0345 65be
00000080: 2209 25be bbf7 20be 66b9 3abe ffc4 cb3d
00000090: 72bc c43d 2e94 38bd 2727 a0be ae0d 47bd
000000a0: f1b9 54bd b5a5 39be f6e2 473e 0ba6 6dbe
000000b0: 17a9 973d c7ed 2b3e 4f99 2d3e 65a0 0ebe
000000c0: 2e3a e7bd 1a38 bfbd fbd6 05bd 63b9 11be
000000d0: dc54 9a3d bc0f febd 9d33 043e c82b 0fbe
000000e0: 1ce2 25be 7bdb 59be ff42 83be 1582 2cbf
000000f0: 359e 17be f475 4cbe b917 453e 5d3e 813d
-0.07879906 -0.10007911 0.21818958 -0.7142433 -0.1026978 0.011086412 -0.3098397 -0.124124266
-0.16299978 -0.23943898 0.14050892 -0.27681896 -0.15220328 -0.69024116 -0.27448064 -0.13558829
-0.06039006 -0.33541822 -0.2450146 -0.48118725 0.05046256 0.06377811 -0.0907263 -0.15611511
-0.47673458 -0.103646025 -0.27307075 0.05705868 -0.0978224 0.15519649 0.04077107 -0.22389607
-0.16116765 -0.15719502 -0.18234786 0.099496834 0.096062556 -0.04506319 -0.3127987 -0.04859703
-0.05193514 -0.18129618 0.19520172 -0.23207872 0.07405298 0.16789924 0.16953014 -0.13928373
-0.11290394 -0.093368724 -0.032675724 -0.14230876 0.07535717 -0.12405345 0.12910314 -0.13981545
-0.16199535 -0.21275131 -0.2563705 -0.6738599 -0.14806445 -0.1996687 0.1924733 0.06310723

fc2.weight f4 [1, 64]
00000000: cb28 8a3e 7b46 b0bc 38a6 593f c02e d1bd
00000010: 7f6c e839 029d 29bf 12d8 43be 5ae7 c9bc
00000020: 343a 2fbd 6bdc 4c3c f743 38bf 362c 88bd
00000030: 1d8f 583e 55c0 b8be 4412 cbbd ca79 873c
00000040: 4a6c 9d3d 44d1 813f 78f1 9cbd 9ec8 22be
00000050: b7b8 8f3e a345 7cbe 2641 83bc b67b bebc
00000060: 5992 80be 5e9d 673d 027c 1f3d 42b1 52bf
00000070: 9448 743e c276 a93e 6083 1fbf 8bad 1fbe
00000080: fc33 2bbc 0d80 acbd 3412 9e3b 51c5 ed3e
00000090: 904b 46bf bcfc e03e 56f6 a23e 0b21 a6bc
000000a0: 35d5 f23e c9db 50bd 5901 463f 4904 5bbc
000000b0: 9ceb 08bf 5fb2 3c3f c68b 323f e9e9 99bc
000000c0: 7a19 66bd 9ccd 343c 983a e23e 9d37 83bd
000000d0: 1b4a d1be b53b 883d e9ae fabe 3d85 af3c
000000e0: 385e a43c 047c c23c bd6c 343d 5684 79be
000000f0: 6636 b4bb 02d6 be3d f5bf 2c3f 9c3b 1bbf
0.26984248 -0.021517983 0.85019255 -0.10213995 0.00044331324 -0.662552 -0.19125393 -0.02464645
-0.042780116 0.012503724 -0.71978706 -0.066490576 0.21148343 -0.36084238 -0.09915593 0.016537566
0.0768667 1.0141988 -0.07663244 -0.15896842 0.28070614 -0.2463594 -0.016022276 -0.02325235
-0.25111654 0.05654656 0.038936622 -0.82301724 0.23855811 0.33098418 -0.6230984 -0.15593545
-0.010449406 -0.08422861 0.0048239473 0.46439603 -0.7745905 0.4394282 0.31828564 -0.020279428
0.4742829 -0.050990853 0.77345806 -0.013367721 -0.5348451 0.7370967 0.6974453 -0.018788295
-0.05617664 0.011035349 0.44185328 -0.06407092 -0.4087685 0.06652013 -0.4896157 0.021425838
0.020064458 0.023740776 0.044049013 -0.24366888 -0.005499649 0.093181625 0.67480403 -0.6063783
